<?xml version="1.0" ?>
<net name="road-segmentation-adas-0001" version="11">
	<layers>
		<layer id="88" name="data" type="Parameter" version="opset1">
			<data shape="1,3,512,896" element_type="f32"/>
			<rt_info>
				<attribute name="old_api_map_element_type" version="0" value="f16"/>
			</rt_info>
			<output>
				<port id="0" precision="FP32" names="data">
					<dim>1</dim>
					<dim>3</dim>
					<dim>512</dim>
					<dim>896</dim>
					<rt_info>
						<attribute name="layout" version="0" layout="[N,C,H,W]"/>
					</rt_info>
				</port>
			</output>
		</layer>
		<layer id="0" name="5921592530958" type="Const" version="opset1">
			<data offset="0" size="4" shape="" element_type="f32"/>
			<output>
				<port id="0" precision="FP32"/>
			</output>
		</layer>
		<layer id="1" name="5922592628756" type="Const" version="opset1">
			<data offset="4" size="4" shape="" element_type="f32"/>
			<output>
				<port id="0" precision="FP32"/>
			</output>
		</layer>
		<layer id="2" name="5923592729965" type="Const" version="opset1">
			<data offset="0" size="4" shape="" element_type="f32"/>
			<output>
				<port id="0" precision="FP32"/>
			</output>
		</layer>
		<layer id="3" name="5924592831510" type="Const" version="opset1">
			<data offset="4" size="4" shape="" element_type="f32"/>
			<output>
				<port id="0" precision="FP32"/>
			</output>
		</layer>
		<layer id="4" name="3731373531732" type="Const" version="opset1">
			<data offset="8" size="4" shape="" element_type="f32"/>
			<output>
				<port id="0" precision="FP32"/>
			</output>
		</layer>
		<layer id="5" name="3732373631996" type="Const" version="opset1">
			<data offset="12" size="4" shape="" element_type="f32"/>
			<output>
				<port id="0" precision="FP32"/>
			</output>
		</layer>
		<layer id="6" name="3733373731189" type="Const" version="opset1">
			<data offset="8" size="4" shape="" element_type="f32"/>
			<output>
				<port id="0" precision="FP32"/>
			</output>
		</layer>
		<layer id="7" name="3734373829410" type="Const" version="opset1">
			<data offset="12" size="4" shape="" element_type="f32"/>
			<output>
				<port id="0" precision="FP32"/>
			</output>
		</layer>
		<layer id="8" name="3691369528777" type="Const" version="opset1">
			<data offset="0" size="4" shape="" element_type="f32"/>
			<output>
				<port id="0" precision="FP32"/>
			</output>
		</layer>
		<layer id="9" name="3692369628969" type="Const" version="opset1">
			<data offset="16" size="4" shape="" element_type="f32"/>
			<output>
				<port id="0" precision="FP32"/>
			</output>
		</layer>
		<layer id="10" name="3693369730523" type="Const" version="opset1">
			<data offset="0" size="4" shape="" element_type="f32"/>
			<output>
				<port id="0" precision="FP32"/>
			</output>
		</layer>
		<layer id="11" name="3694369830595" type="Const" version="opset1">
			<data offset="16" size="4" shape="" element_type="f32"/>
			<output>
				<port id="0" precision="FP32"/>
			</output>
		</layer>
		<layer id="12" name="6221622530856" type="Const" version="opset1">
			<data offset="20" size="32" shape="1,8,1,1" element_type="f32"/>
			<output>
				<port id="0" precision="FP32">
					<dim>1</dim>
					<dim>8</dim>
					<dim>1</dim>
					<dim>1</dim>
				</port>
			</output>
		</layer>
		<layer id="13" name="6222622629782" type="Const" version="opset1">
			<data offset="52" size="32" shape="1,8,1,1" element_type="f32"/>
			<output>
				<port id="0" precision="FP32">
					<dim>1</dim>
					<dim>8</dim>
					<dim>1</dim>
					<dim>1</dim>
				</port>
			</output>
		</layer>
		<layer id="14" name="6223622728861" type="Const" version="opset1">
			<data offset="20" size="32" shape="1,8,1,1" element_type="f32"/>
			<output>
				<port id="0" precision="FP32">
					<dim>1</dim>
					<dim>8</dim>
					<dim>1</dim>
					<dim>1</dim>
				</port>
			</output>
		</layer>
		<layer id="15" name="6224622831810" type="Const" version="opset1">
			<data offset="52" size="32" shape="1,8,1,1" element_type="f32"/>
			<output>
				<port id="0" precision="FP32">
					<dim>1</dim>
					<dim>8</dim>
					<dim>1</dim>
					<dim>1</dim>
				</port>
			</output>
		</layer>
		<layer id="16" name="6871687531987" type="Const" version="opset1">
			<data offset="0" size="4" shape="" element_type="f32"/>
			<output>
				<port id="0" precision="FP32"/>
			</output>
		</layer>
		<layer id="17" name="6872687629764" type="Const" version="opset1">
			<data offset="84" size="4" shape="" element_type="f32"/>
			<output>
				<port id="0" precision="FP32"/>
			</output>
		</layer>
		<layer id="18" name="6873687730781" type="Const" version="opset1">
			<data offset="0" size="4" shape="" element_type="f32"/>
			<output>
				<port id="0" precision="FP32"/>
			</output>
		</layer>
		<layer id="19" name="6874687828753" type="Const" version="opset1">
			<data offset="84" size="4" shape="" element_type="f32"/>
			<output>
				<port id="0" precision="FP32"/>
			</output>
		</layer>
		<layer id="20" name="4241424529872" type="Const" version="opset1">
			<data offset="88" size="4" shape="" element_type="f32"/>
			<output>
				<port id="0" precision="FP32"/>
			</output>
		</layer>
		<layer id="21" name="4242424630751" type="Const" version="opset1">
			<data offset="92" size="4" shape="" element_type="f32"/>
			<output>
				<port id="0" precision="FP32"/>
			</output>
		</layer>
		<layer id="22" name="4243424729827" type="Const" version="opset1">
			<data offset="88" size="4" shape="" element_type="f32"/>
			<output>
				<port id="0" precision="FP32"/>
			</output>
		</layer>
		<layer id="23" name="4244424829614" type="Const" version="opset1">
			<data offset="92" size="4" shape="" element_type="f32"/>
			<output>
				<port id="0" precision="FP32"/>
			</output>
		</layer>
		<layer id="24" name="3751375530031" type="Const" version="opset1">
			<data offset="0" size="4" shape="" element_type="f32"/>
			<output>
				<port id="0" precision="FP32"/>
			</output>
		</layer>
		<layer id="25" name="3752375631741" type="Const" version="opset1">
			<data offset="96" size="4" shape="" element_type="f32"/>
			<output>
				<port id="0" precision="FP32"/>
			</output>
		</layer>
		<layer id="26" name="3753375728912" type="Const" version="opset1">
			<data offset="0" size="4" shape="" element_type="f32"/>
			<output>
				<port id="0" precision="FP32"/>
			</output>
		</layer>
		<layer id="27" name="3754375830721" type="Const" version="opset1">
			<data offset="96" size="4" shape="" element_type="f32"/>
			<output>
				<port id="0" precision="FP32"/>
			</output>
		</layer>
		<layer id="28" name="5031503531774" type="Const" version="opset1">
			<data offset="20" size="32" shape="1,8,1,1" element_type="f32"/>
			<output>
				<port id="0" precision="FP32">
					<dim>1</dim>
					<dim>8</dim>
					<dim>1</dim>
					<dim>1</dim>
				</port>
			</output>
		</layer>
		<layer id="29" name="5032503630085" type="Const" version="opset1">
			<data offset="100" size="32" shape="1,8,1,1" element_type="f32"/>
			<output>
				<port id="0" precision="FP32">
					<dim>1</dim>
					<dim>8</dim>
					<dim>1</dim>
					<dim>1</dim>
				</port>
			</output>
		</layer>
		<layer id="30" name="5033503730982" type="Const" version="opset1">
			<data offset="20" size="32" shape="1,8,1,1" element_type="f32"/>
			<output>
				<port id="0" precision="FP32">
					<dim>1</dim>
					<dim>8</dim>
					<dim>1</dim>
					<dim>1</dim>
				</port>
			</output>
		</layer>
		<layer id="31" name="5034503831093" type="Const" version="opset1">
			<data offset="100" size="32" shape="1,8,1,1" element_type="f32"/>
			<output>
				<port id="0" precision="FP32">
					<dim>1</dim>
					<dim>8</dim>
					<dim>1</dim>
					<dim>1</dim>
				</port>
			</output>
		</layer>
		<layer id="32" name="3671367529320" type="Const" version="opset1">
			<data offset="0" size="4" shape="" element_type="f32"/>
			<output>
				<port id="0" precision="FP32"/>
			</output>
		</layer>
		<layer id="33" name="3672367629749" type="Const" version="opset1">
			<data offset="132" size="4" shape="" element_type="f32"/>
			<output>
				<port id="0" precision="FP32"/>
			</output>
		</layer>
		<layer id="34" name="3673367731795" type="Const" version="opset1">
			<data offset="0" size="4" shape="" element_type="f32"/>
			<output>
				<port id="0" precision="FP32"/>
			</output>
		</layer>
		<layer id="35" name="3674367831753" type="Const" version="opset1">
			<data offset="132" size="4" shape="" element_type="f32"/>
			<output>
				<port id="0" precision="FP32"/>
			</output>
		</layer>
		<layer id="36" name="6121612529821" type="Const" version="opset1">
			<data offset="136" size="4" shape="" element_type="f32"/>
			<output>
				<port id="0" precision="FP32"/>
			</output>
		</layer>
		<layer id="37" name="6122612631738" type="Const" version="opset1">
			<data offset="140" size="4" shape="" element_type="f32"/>
			<output>
				<port id="0" precision="FP32"/>
			</output>
		</layer>
		<layer id="38" name="6123612729431" type="Const" version="opset1">
			<data offset="136" size="4" shape="" element_type="f32"/>
			<output>
				<port id="0" precision="FP32"/>
			</output>
		</layer>
		<layer id="39" name="6124612829224" type="Const" version="opset1">
			<data offset="140" size="4" shape="" element_type="f32"/>
			<output>
				<port id="0" precision="FP32"/>
			</output>
		</layer>
		<layer id="40" name="5561556531459" type="Const" version="opset1">
			<data offset="0" size="4" shape="" element_type="f32"/>
			<output>
				<port id="0" precision="FP32"/>
			</output>
		</layer>
		<layer id="41" name="5562556631927" type="Const" version="opset1">
			<data offset="144" size="4" shape="" element_type="f32"/>
			<output>
				<port id="0" precision="FP32"/>
			</output>
		</layer>
		<layer id="42" name="5563556730382" type="Const" version="opset1">
			<data offset="0" size="4" shape="" element_type="f32"/>
			<output>
				<port id="0" precision="FP32"/>
			</output>
		</layer>
		<layer id="43" name="5564556831132" type="Const" version="opset1">
			<data offset="144" size="4" shape="" element_type="f32"/>
			<output>
				<port id="0" precision="FP32"/>
			</output>
		</layer>
		<layer id="44" name="6201620530925" type="Const" version="opset1">
			<data offset="20" size="32" shape="1,8,1,1" element_type="f32"/>
			<output>
				<port id="0" precision="FP32">
					<dim>1</dim>
					<dim>8</dim>
					<dim>1</dim>
					<dim>1</dim>
				</port>
			</output>
		</layer>
		<layer id="45" name="6202620631351" type="Const" version="opset1">
			<data offset="148" size="32" shape="1,8,1,1" element_type="f32"/>
			<output>
				<port id="0" precision="FP32">
					<dim>1</dim>
					<dim>8</dim>
					<dim>1</dim>
					<dim>1</dim>
				</port>
			</output>
		</layer>
		<layer id="46" name="6203620728723" type="Const" version="opset1">
			<data offset="20" size="32" shape="1,8,1,1" element_type="f32"/>
			<output>
				<port id="0" precision="FP32">
					<dim>1</dim>
					<dim>8</dim>
					<dim>1</dim>
					<dim>1</dim>
				</port>
			</output>
		</layer>
		<layer id="47" name="6204620829836" type="Const" version="opset1">
			<data offset="148" size="32" shape="1,8,1,1" element_type="f32"/>
			<output>
				<port id="0" precision="FP32">
					<dim>1</dim>
					<dim>8</dim>
					<dim>1</dim>
					<dim>1</dim>
				</port>
			</output>
		</layer>
		<layer id="48" name="4971497529989" type="Const" version="opset1">
			<data offset="0" size="4" shape="" element_type="f32"/>
			<output>
				<port id="0" precision="FP32"/>
			</output>
		</layer>
		<layer id="49" name="4972497630214" type="Const" version="opset1">
			<data offset="180" size="4" shape="" element_type="f32"/>
			<output>
				<port id="0" precision="FP32"/>
			</output>
		</layer>
		<layer id="50" name="4973497728639" type="Const" version="opset1">
			<data offset="0" size="4" shape="" element_type="f32"/>
			<output>
				<port id="0" precision="FP32"/>
			</output>
		</layer>
		<layer id="51" name="4974497828927" type="Const" version="opset1">
			<data offset="180" size="4" shape="" element_type="f32"/>
			<output>
				<port id="0" precision="FP32"/>
			</output>
		</layer>
		<layer id="52" name="6731673529287" type="Const" version="opset1">
			<data offset="184" size="4" shape="" element_type="f32"/>
			<output>
				<port id="0" precision="FP32"/>
			</output>
		</layer>
		<layer id="53" name="6732673631477" type="Const" version="opset1">
			<data offset="188" size="4" shape="" element_type="f32"/>
			<output>
				<port id="0" precision="FP32"/>
			</output>
		</layer>
		<layer id="54" name="6733673729350" type="Const" version="opset1">
			<data offset="184" size="4" shape="" element_type="f32"/>
			<output>
				<port id="0" precision="FP32"/>
			</output>
		</layer>
		<layer id="55" name="6734673831726" type="Const" version="opset1">
			<data offset="188" size="4" shape="" element_type="f32"/>
			<output>
				<port id="0" precision="FP32"/>
			</output>
		</layer>
		<layer id="56" name="4081408528876" type="Const" version="opset1">
			<data offset="0" size="4" shape="" element_type="f32"/>
			<output>
				<port id="0" precision="FP32"/>
			</output>
		</layer>
		<layer id="57" name="4082408630019" type="Const" version="opset1">
			<data offset="192" size="4" shape="" element_type="f32"/>
			<output>
				<port id="0" precision="FP32"/>
			</output>
		</layer>
		<layer id="58" name="4083408731372" type="Const" version="opset1">
			<data offset="0" size="4" shape="" element_type="f32"/>
			<output>
				<port id="0" precision="FP32"/>
			</output>
		</layer>
		<layer id="59" name="4084408830016" type="Const" version="opset1">
			<data offset="192" size="4" shape="" element_type="f32"/>
			<output>
				<port id="0" precision="FP32"/>
			</output>
		</layer>
		<layer id="60" name="4931493529704" type="Const" version="opset1">
			<data offset="20" size="32" shape="1,8,1,1" element_type="f32"/>
			<output>
				<port id="0" precision="FP32">
					<dim>1</dim>
					<dim>8</dim>
					<dim>1</dim>
					<dim>1</dim>
				</port>
			</output>
		</layer>
		<layer id="61" name="4932493628771" type="Const" version="opset1">
			<data offset="196" size="32" shape="1,8,1,1" element_type="f32"/>
			<output>
				<port id="0" precision="FP32">
					<dim>1</dim>
					<dim>8</dim>
					<dim>1</dim>
					<dim>1</dim>
				</port>
			</output>
		</layer>
		<layer id="62" name="4933493730097" type="Const" version="opset1">
			<data offset="20" size="32" shape="1,8,1,1" element_type="f32"/>
			<output>
				<port id="0" precision="FP32">
					<dim>1</dim>
					<dim>8</dim>
					<dim>1</dim>
					<dim>1</dim>
				</port>
			</output>
		</layer>
		<layer id="63" name="4934493829554" type="Const" version="opset1">
			<data offset="196" size="32" shape="1,8,1,1" element_type="f32"/>
			<output>
				<port id="0" precision="FP32">
					<dim>1</dim>
					<dim>8</dim>
					<dim>1</dim>
					<dim>1</dim>
				</port>
			</output>
		</layer>
		<layer id="64" name="4341434530991" type="Const" version="opset1">
			<data offset="0" size="4" shape="" element_type="f32"/>
			<output>
				<port id="0" precision="FP32"/>
			</output>
		</layer>
		<layer id="65" name="4342434629284" type="Const" version="opset1">
			<data offset="228" size="4" shape="" element_type="f32"/>
			<output>
				<port id="0" precision="FP32"/>
			</output>
		</layer>
		<layer id="66" name="4343434730580" type="Const" version="opset1">
			<data offset="0" size="4" shape="" element_type="f32"/>
			<output>
				<port id="0" precision="FP32"/>
			</output>
		</layer>
		<layer id="67" name="4344434829977" type="Const" version="opset1">
			<data offset="228" size="4" shape="" element_type="f32"/>
			<output>
				<port id="0" precision="FP32"/>
			</output>
		</layer>
		<layer id="68" name="4891489529512" type="Const" version="opset1">
			<data offset="232" size="4" shape="" element_type="f32"/>
			<output>
				<port id="0" precision="FP32"/>
			</output>
		</layer>
		<layer id="69" name="4892489628543" type="Const" version="opset1">
			<data offset="236" size="4" shape="" element_type="f32"/>
			<output>
				<port id="0" precision="FP32"/>
			</output>
		</layer>
		<layer id="70" name="4893489730775" type="Const" version="opset1">
			<data offset="232" size="4" shape="" element_type="f32"/>
			<output>
				<port id="0" precision="FP32"/>
			</output>
		</layer>
		<layer id="71" name="4894489830733" type="Const" version="opset1">
			<data offset="236" size="4" shape="" element_type="f32"/>
			<output>
				<port id="0" precision="FP32"/>
			</output>
		</layer>
		<layer id="72" name="4771477528666" type="Const" version="opset1">
			<data offset="0" size="4" shape="" element_type="f32"/>
			<output>
				<port id="0" precision="FP32"/>
			</output>
		</layer>
		<layer id="73" name="4772477630850" type="Const" version="opset1">
			<data offset="240" size="4" shape="" element_type="f32"/>
			<output>
				<port id="0" precision="FP32"/>
			</output>
		</layer>
		<layer id="74" name="4773477731669" type="Const" version="opset1">
			<data offset="0" size="4" shape="" element_type="f32"/>
			<output>
				<port id="0" precision="FP32"/>
			</output>
		</layer>
		<layer id="75" name="4774477830997" type="Const" version="opset1">
			<data offset="240" size="4" shape="" element_type="f32"/>
			<output>
				<port id="0" precision="FP32"/>
			</output>
		</layer>
		<layer id="76" name="4731473531117" type="Const" version="opset1">
			<data offset="20" size="32" shape="1,8,1,1" element_type="f32"/>
			<output>
				<port id="0" precision="FP32">
					<dim>1</dim>
					<dim>8</dim>
					<dim>1</dim>
					<dim>1</dim>
				</port>
			</output>
		</layer>
		<layer id="77" name="4732473630544" type="Const" version="opset1">
			<data offset="244" size="32" shape="1,8,1,1" element_type="f32"/>
			<output>
				<port id="0" precision="FP32">
					<dim>1</dim>
					<dim>8</dim>
					<dim>1</dim>
					<dim>1</dim>
				</port>
			</output>
		</layer>
		<layer id="78" name="4733473730274" type="Const" version="opset1">
			<data offset="20" size="32" shape="1,8,1,1" element_type="f32"/>
			<output>
				<port id="0" precision="FP32">
					<dim>1</dim>
					<dim>8</dim>
					<dim>1</dim>
					<dim>1</dim>
				</port>
			</output>
		</layer>
		<layer id="79" name="4734473830766" type="Const" version="opset1">
			<data offset="244" size="32" shape="1,8,1,1" element_type="f32"/>
			<output>
				<port id="0" precision="FP32">
					<dim>1</dim>
					<dim>8</dim>
					<dim>1</dim>
					<dim>1</dim>
				</port>
			</output>
		</layer>
		<layer id="80" name="4951495530526" type="Const" version="opset1">
			<data offset="0" size="4" shape="" element_type="f32"/>
			<output>
				<port id="0" precision="FP32"/>
			</output>
		</layer>
		<layer id="81" name="4952495631561" type="Const" version="opset1">
			<data offset="276" size="4" shape="" element_type="f32"/>
			<output>
				<port id="0" precision="FP32"/>
			</output>
		</layer>
		<layer id="82" name="4953495731933" type="Const" version="opset1">
			<data offset="0" size="4" shape="" element_type="f32"/>
			<output>
				<port id="0" precision="FP32"/>
			</output>
		</layer>
		<layer id="83" name="4954495829731" type="Const" version="opset1">
			<data offset="276" size="4" shape="" element_type="f32"/>
			<output>
				<port id="0" precision="FP32"/>
			</output>
		</layer>
		<layer id="84" name="5641564531948" type="Const" version="opset1">
			<data offset="0" size="4" shape="" element_type="f32"/>
			<output>
				<port id="0" precision="FP32"/>
			</output>
		</layer>
		<layer id="85" name="5642564629536" type="Const" version="opset1">
			<data offset="280" size="4" shape="" element_type="f32"/>
			<output>
				<port id="0" precision="FP32"/>
			</output>
		</layer>
		<layer id="86" name="5643564728870" type="Const" version="opset1">
			<data offset="0" size="4" shape="" element_type="f32"/>
			<output>
				<port id="0" precision="FP32"/>
			</output>
		</layer>
		<layer id="87" name="5644564830169" type="Const" version="opset1">
			<data offset="280" size="4" shape="" element_type="f32"/>
			<output>
				<port id="0" precision="FP32"/>
			</output>
		</layer>
		<layer id="89" name="L0000_Conv2d_BN/WithoutBiases/fq_input_0" type="FakeQuantize" version="opset1">
			<data levels="256" auto_broadcast="numpy"/>
			<input>
				<port id="0">
					<dim>1</dim>
					<dim>3</dim>
					<dim>512</dim>
					<dim>896</dim>
				</port>
				<port id="1"/>
				<port id="2"/>
				<port id="3"/>
				<port id="4"/>
			</input>
			<output>
				<port id="5" precision="FP32">
					<dim>1</dim>
					<dim>3</dim>
					<dim>512</dim>
					<dim>896</dim>
				</port>
			</output>
		</layer>
		<layer id="90" name="L0000_Conv2d_BN/WithoutBiases/fq_weights_1/scale1946732149" type="Const" version="opset1">
			<data offset="284" size="64" shape="16,1,1,1" element_type="f32"/>
			<output>
				<port id="0" precision="FP32">
					<dim>16</dim>
					<dim>1</dim>
					<dim>1</dim>
					<dim>1</dim>
				</port>
			</output>
		</layer>
		<layer id="91" name="489105315354/restored_convert/quantized1945930349" type="Const" version="opset1">
			<data offset="348" size="432" shape="16,3,3,3" element_type="i8"/>
			<output>
				<port id="0" precision="I8">
					<dim>16</dim>
					<dim>3</dim>
					<dim>3</dim>
					<dim>3</dim>
				</port>
			</output>
		</layer>
		<layer id="92" name="489105315354/restored_convert/quantized/to_f32" type="Convert" version="opset1">
			<data destination_type="f32"/>
			<input>
				<port id="0">
					<dim>16</dim>
					<dim>3</dim>
					<dim>3</dim>
					<dim>3</dim>
				</port>
			</input>
			<output>
				<port id="1" precision="FP32">
					<dim>16</dim>
					<dim>3</dim>
					<dim>3</dim>
					<dim>3</dim>
				</port>
			</output>
		</layer>
		<layer id="93" name="L0000_Conv2d_BN/WithoutBiases/fq_weights_1/mulpiply_by_scale" type="Multiply" version="opset1">
			<data auto_broadcast="numpy"/>
			<input>
				<port id="0">
					<dim>16</dim>
					<dim>3</dim>
					<dim>3</dim>
					<dim>3</dim>
				</port>
				<port id="1">
					<dim>16</dim>
					<dim>1</dim>
					<dim>1</dim>
					<dim>1</dim>
				</port>
			</input>
			<output>
				<port id="2" precision="FP32">
					<dim>16</dim>
					<dim>3</dim>
					<dim>3</dim>
					<dim>3</dim>
				</port>
			</output>
		</layer>
		<layer id="94" name="L0000_Conv2d_BN/WithoutBiases" type="Convolution" version="opset1">
			<data auto_pad="explicit" strides="2,2" dilations="1,1" pads_begin="1,1" pads_end="1,1"/>
			<input>
				<port id="0">
					<dim>1</dim>
					<dim>3</dim>
					<dim>512</dim>
					<dim>896</dim>
				</port>
				<port id="1">
					<dim>16</dim>
					<dim>3</dim>
					<dim>3</dim>
					<dim>3</dim>
				</port>
			</input>
			<output>
				<port id="2" precision="FP32">
					<dim>1</dim>
					<dim>16</dim>
					<dim>256</dim>
					<dim>448</dim>
				</port>
			</output>
		</layer>
		<layer id="95" name="L0000_Conv2d_BN/Dims6251105629389" type="Const" version="opset1">
			<data offset="780" size="32" shape="1,16,1,1" element_type="f16"/>
			<output>
				<port id="0" precision="FP16">
					<dim>1</dim>
					<dim>16</dim>
					<dim>1</dim>
					<dim>1</dim>
				</port>
			</output>
		</layer>
		<layer id="96" name="L0000_Conv2d_BN/Dims6251105615355/restored_convert" type="Convert" version="opset1">
			<data destination_type="f32"/>
			<rt_info>
				<attribute name="decompression" version="0"/>
			</rt_info>
			<input>
				<port id="0">
					<dim>1</dim>
					<dim>16</dim>
					<dim>1</dim>
					<dim>1</dim>
				</port>
			</input>
			<output>
				<port id="1" precision="FP32">
					<dim>1</dim>
					<dim>16</dim>
					<dim>1</dim>
					<dim>1</dim>
				</port>
			</output>
		</layer>
		<layer id="97" name="L0000_Conv2d_BN" type="Add" version="opset1">
			<data auto_broadcast="numpy"/>
			<input>
				<port id="0">
					<dim>1</dim>
					<dim>16</dim>
					<dim>256</dim>
					<dim>448</dim>
				</port>
				<port id="1">
					<dim>1</dim>
					<dim>16</dim>
					<dim>1</dim>
					<dim>1</dim>
				</port>
			</input>
			<output>
				<port id="2" precision="FP32" names="L0000_Conv2d_BN">
					<dim>1</dim>
					<dim>16</dim>
					<dim>256</dim>
					<dim>448</dim>
				</port>
			</output>
		</layer>
		<layer id="98" name="L0001_ReLU" type="ReLU" version="opset1">
			<input>
				<port id="0">
					<dim>1</dim>
					<dim>16</dim>
					<dim>256</dim>
					<dim>448</dim>
				</port>
			</input>
			<output>
				<port id="1" precision="FP32" names="L0001_ReLU">
					<dim>1</dim>
					<dim>16</dim>
					<dim>256</dim>
					<dim>448</dim>
				</port>
			</output>
		</layer>
		<layer id="99" name="L0002_Conv2d_BN/WithoutBiases/fq_input_0" type="FakeQuantize" version="opset1">
			<data levels="256" auto_broadcast="numpy"/>
			<input>
				<port id="0">
					<dim>1</dim>
					<dim>16</dim>
					<dim>256</dim>
					<dim>448</dim>
				</port>
				<port id="1"/>
				<port id="2"/>
				<port id="3"/>
				<port id="4"/>
			</input>
			<output>
				<port id="5" precision="FP32">
					<dim>1</dim>
					<dim>16</dim>
					<dim>256</dim>
					<dim>448</dim>
				</port>
			</output>
		</layer>
		<layer id="100" name="L0002_Conv2d_BN/WithoutBiases/fq_weights_1/scale1967730709" type="Const" version="opset1">
			<data offset="812" size="32" shape="8,1,1,1" element_type="f32"/>
			<output>
				<port id="0" precision="FP32">
					<dim>8</dim>
					<dim>1</dim>
					<dim>1</dim>
					<dim>1</dim>
				</port>
			</output>
		</layer>
		<layer id="101" name="333106015356/restored_convert/quantized1966931717" type="Const" version="opset1">
			<data offset="844" size="128" shape="8,16,1,1" element_type="i8"/>
			<output>
				<port id="0" precision="I8">
					<dim>8</dim>
					<dim>16</dim>
					<dim>1</dim>
					<dim>1</dim>
				</port>
			</output>
		</layer>
		<layer id="102" name="333106015356/restored_convert/quantized/to_f32" type="Convert" version="opset1">
			<data destination_type="f32"/>
			<input>
				<port id="0">
					<dim>8</dim>
					<dim>16</dim>
					<dim>1</dim>
					<dim>1</dim>
				</port>
			</input>
			<output>
				<port id="1" precision="FP32">
					<dim>8</dim>
					<dim>16</dim>
					<dim>1</dim>
					<dim>1</dim>
				</port>
			</output>
		</layer>
		<layer id="103" name="L0002_Conv2d_BN/WithoutBiases/fq_weights_1/mulpiply_by_scale" type="Multiply" version="opset1">
			<data auto_broadcast="numpy"/>
			<input>
				<port id="0">
					<dim>8</dim>
					<dim>16</dim>
					<dim>1</dim>
					<dim>1</dim>
				</port>
				<port id="1">
					<dim>8</dim>
					<dim>1</dim>
					<dim>1</dim>
					<dim>1</dim>
				</port>
			</input>
			<output>
				<port id="2" precision="FP32">
					<dim>8</dim>
					<dim>16</dim>
					<dim>1</dim>
					<dim>1</dim>
				</port>
			</output>
		</layer>
		<layer id="104" name="L0002_Conv2d_BN/WithoutBiases" type="Convolution" version="opset1">
			<data auto_pad="explicit" strides="1,1" dilations="1,1" pads_begin="0,0" pads_end="0,0"/>
			<input>
				<port id="0">
					<dim>1</dim>
					<dim>16</dim>
					<dim>256</dim>
					<dim>448</dim>
				</port>
				<port id="1">
					<dim>8</dim>
					<dim>16</dim>
					<dim>1</dim>
					<dim>1</dim>
				</port>
			</input>
			<output>
				<port id="2" precision="FP32">
					<dim>1</dim>
					<dim>8</dim>
					<dim>256</dim>
					<dim>448</dim>
				</port>
			</output>
		</layer>
		<layer id="105" name="L0002_Conv2d_BN/Dims5687106331285" type="Const" version="opset1">
			<data offset="972" size="16" shape="1,8,1,1" element_type="f16"/>
			<output>
				<port id="0" precision="FP16">
					<dim>1</dim>
					<dim>8</dim>
					<dim>1</dim>
					<dim>1</dim>
				</port>
			</output>
		</layer>
		<layer id="106" name="L0002_Conv2d_BN/Dims5687106315357/restored_convert" type="Convert" version="opset1">
			<data destination_type="f32"/>
			<rt_info>
				<attribute name="decompression" version="0"/>
			</rt_info>
			<input>
				<port id="0">
					<dim>1</dim>
					<dim>8</dim>
					<dim>1</dim>
					<dim>1</dim>
				</port>
			</input>
			<output>
				<port id="1" precision="FP32">
					<dim>1</dim>
					<dim>8</dim>
					<dim>1</dim>
					<dim>1</dim>
				</port>
			</output>
		</layer>
		<layer id="107" name="L0002_Conv2d_BN" type="Add" version="opset1">
			<data auto_broadcast="numpy"/>
			<input>
				<port id="0">
					<dim>1</dim>
					<dim>8</dim>
					<dim>256</dim>
					<dim>448</dim>
				</port>
				<port id="1">
					<dim>1</dim>
					<dim>8</dim>
					<dim>1</dim>
					<dim>1</dim>
				</port>
			</input>
			<output>
				<port id="2" precision="FP32" names="L0002_Conv2d_BN">
					<dim>1</dim>
					<dim>8</dim>
					<dim>256</dim>
					<dim>448</dim>
				</port>
			</output>
		</layer>
		<layer id="108" name="L0003_ReLU" type="ReLU" version="opset1">
			<input>
				<port id="0">
					<dim>1</dim>
					<dim>8</dim>
					<dim>256</dim>
					<dim>448</dim>
				</port>
			</input>
			<output>
				<port id="1" precision="FP32" names="L0003_ReLU">
					<dim>1</dim>
					<dim>8</dim>
					<dim>256</dim>
					<dim>448</dim>
				</port>
			</output>
		</layer>
		<layer id="109" name="L0004_Conv2d_BN/WithoutBiases/fq_input_0" type="FakeQuantize" version="opset1">
			<data levels="256" auto_broadcast="numpy"/>
			<input>
				<port id="0">
					<dim>1</dim>
					<dim>8</dim>
					<dim>256</dim>
					<dim>448</dim>
				</port>
				<port id="1">
					<dim>1</dim>
					<dim>8</dim>
					<dim>1</dim>
					<dim>1</dim>
				</port>
				<port id="2">
					<dim>1</dim>
					<dim>8</dim>
					<dim>1</dim>
					<dim>1</dim>
				</port>
				<port id="3">
					<dim>1</dim>
					<dim>8</dim>
					<dim>1</dim>
					<dim>1</dim>
				</port>
				<port id="4">
					<dim>1</dim>
					<dim>8</dim>
					<dim>1</dim>
					<dim>1</dim>
				</port>
			</input>
			<output>
				<port id="5" precision="FP32">
					<dim>1</dim>
					<dim>8</dim>
					<dim>256</dim>
					<dim>448</dim>
				</port>
			</output>
		</layer>
		<layer id="110" name="L0004_Conv2d_BN/WithoutBiases/weights_shape2536831300" type="Const" version="opset1">
			<data offset="988" size="40" shape="5" element_type="i64"/>
			<output>
				<port id="0" precision="I64">
					<dim>5</dim>
				</port>
			</output>
		</layer>
		<layer id="111" name="L0004_Conv2d_BN/WithoutBiases/fq_weights_1/scale1751731585" type="Const" version="opset1">
			<data offset="1028" size="32" shape="8,1,1,1" element_type="f32"/>
			<output>
				<port id="0" precision="FP32">
					<dim>8</dim>
					<dim>1</dim>
					<dim>1</dim>
					<dim>1</dim>
				</port>
			</output>
		</layer>
		<layer id="112" name="341106715358/restored_convert/quantized1750928810" type="Const" version="opset1">
			<data offset="1060" size="72" shape="8,1,3,3" element_type="i8"/>
			<output>
				<port id="0" precision="I8">
					<dim>8</dim>
					<dim>1</dim>
					<dim>3</dim>
					<dim>3</dim>
				</port>
			</output>
		</layer>
		<layer id="113" name="341106715358/restored_convert/quantized/to_f32" type="Convert" version="opset1">
			<data destination_type="f32"/>
			<input>
				<port id="0">
					<dim>8</dim>
					<dim>1</dim>
					<dim>3</dim>
					<dim>3</dim>
				</port>
			</input>
			<output>
				<port id="1" precision="FP32">
					<dim>8</dim>
					<dim>1</dim>
					<dim>3</dim>
					<dim>3</dim>
				</port>
			</output>
		</layer>
		<layer id="114" name="L0004_Conv2d_BN/WithoutBiases/fq_weights_1/mulpiply_by_scale" type="Multiply" version="opset1">
			<data auto_broadcast="numpy"/>
			<input>
				<port id="0">
					<dim>8</dim>
					<dim>1</dim>
					<dim>3</dim>
					<dim>3</dim>
				</port>
				<port id="1">
					<dim>8</dim>
					<dim>1</dim>
					<dim>1</dim>
					<dim>1</dim>
				</port>
			</input>
			<output>
				<port id="2" precision="FP32">
					<dim>8</dim>
					<dim>1</dim>
					<dim>3</dim>
					<dim>3</dim>
				</port>
			</output>
		</layer>
		<layer id="115" name="25367" type="Reshape" version="opset1">
			<data special_zero="true"/>
			<input>
				<port id="0">
					<dim>8</dim>
					<dim>1</dim>
					<dim>3</dim>
					<dim>3</dim>
				</port>
				<port id="1">
					<dim>5</dim>
				</port>
			</input>
			<output>
				<port id="2" precision="FP32">
					<dim>8</dim>
					<dim>1</dim>
					<dim>1</dim>
					<dim>3</dim>
					<dim>3</dim>
				</port>
			</output>
		</layer>
		<layer id="116" name="L0004_Conv2d_BN/WithoutBiases" type="GroupConvolution" version="opset1">
			<data auto_pad="explicit" strides="1,1" dilations="1,1" pads_begin="1,1" pads_end="1,1"/>
			<input>
				<port id="0">
					<dim>1</dim>
					<dim>8</dim>
					<dim>256</dim>
					<dim>448</dim>
				</port>
				<port id="1">
					<dim>8</dim>
					<dim>1</dim>
					<dim>1</dim>
					<dim>3</dim>
					<dim>3</dim>
				</port>
			</input>
			<output>
				<port id="2" precision="FP32">
					<dim>1</dim>
					<dim>8</dim>
					<dim>256</dim>
					<dim>448</dim>
				</port>
			</output>
		</layer>
		<layer id="117" name="L0004_Conv2d_BN/Dims5693107029803" type="Const" version="opset1">
			<data offset="1132" size="16" shape="1,8,1,1" element_type="f16"/>
			<output>
				<port id="0" precision="FP16">
					<dim>1</dim>
					<dim>8</dim>
					<dim>1</dim>
					<dim>1</dim>
				</port>
			</output>
		</layer>
		<layer id="118" name="L0004_Conv2d_BN/Dims5693107015359/restored_convert" type="Convert" version="opset1">
			<data destination_type="f32"/>
			<rt_info>
				<attribute name="decompression" version="0"/>
			</rt_info>
			<input>
				<port id="0">
					<dim>1</dim>
					<dim>8</dim>
					<dim>1</dim>
					<dim>1</dim>
				</port>
			</input>
			<output>
				<port id="1" precision="FP32">
					<dim>1</dim>
					<dim>8</dim>
					<dim>1</dim>
					<dim>1</dim>
				</port>
			</output>
		</layer>
		<layer id="119" name="L0004_Conv2d_BN" type="Add" version="opset1">
			<data auto_broadcast="numpy"/>
			<input>
				<port id="0">
					<dim>1</dim>
					<dim>8</dim>
					<dim>256</dim>
					<dim>448</dim>
				</port>
				<port id="1">
					<dim>1</dim>
					<dim>8</dim>
					<dim>1</dim>
					<dim>1</dim>
				</port>
			</input>
			<output>
				<port id="2" precision="FP32" names="L0004_Conv2d_BN">
					<dim>1</dim>
					<dim>8</dim>
					<dim>256</dim>
					<dim>448</dim>
				</port>
			</output>
		</layer>
		<layer id="120" name="L0005_ReLU" type="ReLU" version="opset1">
			<input>
				<port id="0">
					<dim>1</dim>
					<dim>8</dim>
					<dim>256</dim>
					<dim>448</dim>
				</port>
			</input>
			<output>
				<port id="1" precision="FP32" names="L0005_ReLU">
					<dim>1</dim>
					<dim>8</dim>
					<dim>256</dim>
					<dim>448</dim>
				</port>
			</output>
		</layer>
		<layer id="121" name="L0006_Conv2d_BN/WithoutBiases/fq_input_0" type="FakeQuantize" version="opset1">
			<data levels="256" auto_broadcast="numpy"/>
			<input>
				<port id="0">
					<dim>1</dim>
					<dim>8</dim>
					<dim>256</dim>
					<dim>448</dim>
				</port>
				<port id="1"/>
				<port id="2"/>
				<port id="3"/>
				<port id="4"/>
			</input>
			<output>
				<port id="5" precision="FP32">
					<dim>1</dim>
					<dim>8</dim>
					<dim>256</dim>
					<dim>448</dim>
				</port>
			</output>
		</layer>
		<layer id="122" name="L0006_Conv2d_BN/WithoutBiases/fq_weights_1/scale1940730121" type="Const" version="opset1">
			<data offset="1148" size="64" shape="16,1,1,1" element_type="f32"/>
			<output>
				<port id="0" precision="FP32">
					<dim>16</dim>
					<dim>1</dim>
					<dim>1</dim>
					<dim>1</dim>
				</port>
			</output>
		</layer>
		<layer id="123" name="413107415360/restored_convert/quantized1939930427" type="Const" version="opset1">
			<data offset="1212" size="128" shape="16,8,1,1" element_type="i8"/>
			<output>
				<port id="0" precision="I8">
					<dim>16</dim>
					<dim>8</dim>
					<dim>1</dim>
					<dim>1</dim>
				</port>
			</output>
		</layer>
		<layer id="124" name="413107415360/restored_convert/quantized/to_f32" type="Convert" version="opset1">
			<data destination_type="f32"/>
			<input>
				<port id="0">
					<dim>16</dim>
					<dim>8</dim>
					<dim>1</dim>
					<dim>1</dim>
				</port>
			</input>
			<output>
				<port id="1" precision="FP32">
					<dim>16</dim>
					<dim>8</dim>
					<dim>1</dim>
					<dim>1</dim>
				</port>
			</output>
		</layer>
		<layer id="125" name="L0006_Conv2d_BN/WithoutBiases/fq_weights_1/mulpiply_by_scale" type="Multiply" version="opset1">
			<data auto_broadcast="numpy"/>
			<input>
				<port id="0">
					<dim>16</dim>
					<dim>8</dim>
					<dim>1</dim>
					<dim>1</dim>
				</port>
				<port id="1">
					<dim>16</dim>
					<dim>1</dim>
					<dim>1</dim>
					<dim>1</dim>
				</port>
			</input>
			<output>
				<port id="2" precision="FP32">
					<dim>16</dim>
					<dim>8</dim>
					<dim>1</dim>
					<dim>1</dim>
				</port>
			</output>
		</layer>
		<layer id="126" name="L0006_Conv2d_BN/WithoutBiases" type="Convolution" version="opset1">
			<data auto_pad="explicit" strides="1,1" dilations="1,1" pads_begin="0,0" pads_end="0,0"/>
			<input>
				<port id="0">
					<dim>1</dim>
					<dim>8</dim>
					<dim>256</dim>
					<dim>448</dim>
				</port>
				<port id="1">
					<dim>16</dim>
					<dim>8</dim>
					<dim>1</dim>
					<dim>1</dim>
				</port>
			</input>
			<output>
				<port id="2" precision="FP32">
					<dim>1</dim>
					<dim>16</dim>
					<dim>256</dim>
					<dim>448</dim>
				</port>
			</output>
		</layer>
		<layer id="127" name="L0006_Conv2d_BN/Dims6197107730736" type="Const" version="opset1">
			<data offset="1340" size="32" shape="1,16,1,1" element_type="f16"/>
			<output>
				<port id="0" precision="FP16">
					<dim>1</dim>
					<dim>16</dim>
					<dim>1</dim>
					<dim>1</dim>
				</port>
			</output>
		</layer>
		<layer id="128" name="L0006_Conv2d_BN/Dims6197107715361/restored_convert" type="Convert" version="opset1">
			<data destination_type="f32"/>
			<rt_info>
				<attribute name="decompression" version="0"/>
			</rt_info>
			<input>
				<port id="0">
					<dim>1</dim>
					<dim>16</dim>
					<dim>1</dim>
					<dim>1</dim>
				</port>
			</input>
			<output>
				<port id="1" precision="FP32">
					<dim>1</dim>
					<dim>16</dim>
					<dim>1</dim>
					<dim>1</dim>
				</port>
			</output>
		</layer>
		<layer id="129" name="L0006_Conv2d_BN" type="Add" version="opset1">
			<data auto_broadcast="numpy"/>
			<input>
				<port id="0">
					<dim>1</dim>
					<dim>16</dim>
					<dim>256</dim>
					<dim>448</dim>
				</port>
				<port id="1">
					<dim>1</dim>
					<dim>16</dim>
					<dim>1</dim>
					<dim>1</dim>
				</port>
			</input>
			<output>
				<port id="2" precision="FP32" names="L0006_Conv2d_BN">
					<dim>1</dim>
					<dim>16</dim>
					<dim>256</dim>
					<dim>448</dim>
				</port>
			</output>
		</layer>
		<layer id="130" name="L0007_AddBackward1/fq_input_0" type="FakeQuantize" version="opset1">
			<data levels="256" auto_broadcast="numpy"/>
			<input>
				<port id="0">
					<dim>1</dim>
					<dim>16</dim>
					<dim>256</dim>
					<dim>448</dim>
				</port>
				<port id="1"/>
				<port id="2"/>
				<port id="3"/>
				<port id="4"/>
			</input>
			<output>
				<port id="5" precision="FP32">
					<dim>1</dim>
					<dim>16</dim>
					<dim>256</dim>
					<dim>448</dim>
				</port>
			</output>
		</layer>
		<layer id="131" name="L0007_AddBackward1" type="Add" version="opset1">
			<data auto_broadcast="numpy"/>
			<input>
				<port id="0">
					<dim>1</dim>
					<dim>16</dim>
					<dim>256</dim>
					<dim>448</dim>
				</port>
				<port id="1">
					<dim>1</dim>
					<dim>16</dim>
					<dim>256</dim>
					<dim>448</dim>
				</port>
			</input>
			<output>
				<port id="2" precision="FP32" names="L0007_AddBackward1">
					<dim>1</dim>
					<dim>16</dim>
					<dim>256</dim>
					<dim>448</dim>
				</port>
			</output>
		</layer>
		<layer id="132" name="L0008_ReLU" type="ReLU" version="opset1">
			<input>
				<port id="0">
					<dim>1</dim>
					<dim>16</dim>
					<dim>256</dim>
					<dim>448</dim>
				</port>
			</input>
			<output>
				<port id="1" precision="FP32" names="L0008_ReLU">
					<dim>1</dim>
					<dim>16</dim>
					<dim>256</dim>
					<dim>448</dim>
				</port>
			</output>
		</layer>
		<layer id="133" name="L0009_Conv2d_BN/WithoutBiases/fq_input_0" type="FakeQuantize" version="opset1">
			<data levels="256" auto_broadcast="numpy"/>
			<input>
				<port id="0">
					<dim>1</dim>
					<dim>16</dim>
					<dim>256</dim>
					<dim>448</dim>
				</port>
				<port id="1"/>
				<port id="2"/>
				<port id="3"/>
				<port id="4"/>
			</input>
			<output>
				<port id="5" precision="FP32">
					<dim>1</dim>
					<dim>16</dim>
					<dim>256</dim>
					<dim>448</dim>
				</port>
			</output>
		</layer>
		<layer id="134" name="L0009_Conv2d_BN/WithoutBiases/fq_weights_1/scale1985730358" type="Const" version="opset1">
			<data offset="1372" size="32" shape="8,1,1,1" element_type="f32"/>
			<output>
				<port id="0" precision="FP32">
					<dim>8</dim>
					<dim>1</dim>
					<dim>1</dim>
					<dim>1</dim>
				</port>
			</output>
		</layer>
		<layer id="135" name="323108215362/restored_convert/quantized1984931102" type="Const" version="opset1">
			<data offset="1404" size="128" shape="8,16,1,1" element_type="i8"/>
			<output>
				<port id="0" precision="I8">
					<dim>8</dim>
					<dim>16</dim>
					<dim>1</dim>
					<dim>1</dim>
				</port>
			</output>
		</layer>
		<layer id="136" name="323108215362/restored_convert/quantized/to_f32" type="Convert" version="opset1">
			<data destination_type="f32"/>
			<input>
				<port id="0">
					<dim>8</dim>
					<dim>16</dim>
					<dim>1</dim>
					<dim>1</dim>
				</port>
			</input>
			<output>
				<port id="1" precision="FP32">
					<dim>8</dim>
					<dim>16</dim>
					<dim>1</dim>
					<dim>1</dim>
				</port>
			</output>
		</layer>
		<layer id="137" name="L0009_Conv2d_BN/WithoutBiases/fq_weights_1/mulpiply_by_scale" type="Multiply" version="opset1">
			<data auto_broadcast="numpy"/>
			<input>
				<port id="0">
					<dim>8</dim>
					<dim>16</dim>
					<dim>1</dim>
					<dim>1</dim>
				</port>
				<port id="1">
					<dim>8</dim>
					<dim>1</dim>
					<dim>1</dim>
					<dim>1</dim>
				</port>
			</input>
			<output>
				<port id="2" precision="FP32">
					<dim>8</dim>
					<dim>16</dim>
					<dim>1</dim>
					<dim>1</dim>
				</port>
			</output>
		</layer>
		<layer id="138" name="L0009_Conv2d_BN/WithoutBiases" type="Convolution" version="opset1">
			<data auto_pad="explicit" strides="1,1" dilations="1,1" pads_begin="0,0" pads_end="0,0"/>
			<input>
				<port id="0">
					<dim>1</dim>
					<dim>16</dim>
					<dim>256</dim>
					<dim>448</dim>
				</port>
				<port id="1">
					<dim>8</dim>
					<dim>16</dim>
					<dim>1</dim>
					<dim>1</dim>
				</port>
			</input>
			<output>
				<port id="2" precision="FP32">
					<dim>1</dim>
					<dim>8</dim>
					<dim>256</dim>
					<dim>448</dim>
				</port>
			</output>
		</layer>
		<layer id="139" name="L0009_Conv2d_BN/Dims5669108529344" type="Const" version="opset1">
			<data offset="1532" size="16" shape="1,8,1,1" element_type="f16"/>
			<output>
				<port id="0" precision="FP16">
					<dim>1</dim>
					<dim>8</dim>
					<dim>1</dim>
					<dim>1</dim>
				</port>
			</output>
		</layer>
		<layer id="140" name="L0009_Conv2d_BN/Dims5669108515363/restored_convert" type="Convert" version="opset1">
			<data destination_type="f32"/>
			<rt_info>
				<attribute name="decompression" version="0"/>
			</rt_info>
			<input>
				<port id="0">
					<dim>1</dim>
					<dim>8</dim>
					<dim>1</dim>
					<dim>1</dim>
				</port>
			</input>
			<output>
				<port id="1" precision="FP32">
					<dim>1</dim>
					<dim>8</dim>
					<dim>1</dim>
					<dim>1</dim>
				</port>
			</output>
		</layer>
		<layer id="141" name="L0009_Conv2d_BN" type="Add" version="opset1">
			<data auto_broadcast="numpy"/>
			<input>
				<port id="0">
					<dim>1</dim>
					<dim>8</dim>
					<dim>256</dim>
					<dim>448</dim>
				</port>
				<port id="1">
					<dim>1</dim>
					<dim>8</dim>
					<dim>1</dim>
					<dim>1</dim>
				</port>
			</input>
			<output>
				<port id="2" precision="FP32" names="L0009_Conv2d_BN">
					<dim>1</dim>
					<dim>8</dim>
					<dim>256</dim>
					<dim>448</dim>
				</port>
			</output>
		</layer>
		<layer id="142" name="L0010_ReLU" type="ReLU" version="opset1">
			<input>
				<port id="0">
					<dim>1</dim>
					<dim>8</dim>
					<dim>256</dim>
					<dim>448</dim>
				</port>
			</input>
			<output>
				<port id="1" precision="FP32" names="L0010_ReLU">
					<dim>1</dim>
					<dim>8</dim>
					<dim>256</dim>
					<dim>448</dim>
				</port>
			</output>
		</layer>
		<layer id="143" name="L0011_Conv2d_BN/WithoutBiases/fq_input_0" type="FakeQuantize" version="opset1">
			<data levels="256" auto_broadcast="numpy"/>
			<input>
				<port id="0">
					<dim>1</dim>
					<dim>8</dim>
					<dim>256</dim>
					<dim>448</dim>
				</port>
				<port id="1">
					<dim>1</dim>
					<dim>8</dim>
					<dim>1</dim>
					<dim>1</dim>
				</port>
				<port id="2">
					<dim>1</dim>
					<dim>8</dim>
					<dim>1</dim>
					<dim>1</dim>
				</port>
				<port id="3">
					<dim>1</dim>
					<dim>8</dim>
					<dim>1</dim>
					<dim>1</dim>
				</port>
				<port id="4">
					<dim>1</dim>
					<dim>8</dim>
					<dim>1</dim>
					<dim>1</dim>
				</port>
			</input>
			<output>
				<port id="5" precision="FP32">
					<dim>1</dim>
					<dim>8</dim>
					<dim>256</dim>
					<dim>448</dim>
				</port>
			</output>
		</layer>
		<layer id="144" name="L0011_Conv2d_BN/WithoutBiases/weights_shape2538228729" type="Const" version="opset1">
			<data offset="988" size="40" shape="5" element_type="i64"/>
			<output>
				<port id="0" precision="I64">
					<dim>5</dim>
				</port>
			</output>
		</layer>
		<layer id="145" name="L0011_Conv2d_BN/WithoutBiases/fq_weights_1/scale1883729716" type="Const" version="opset1">
			<data offset="1548" size="32" shape="8,1,1,1" element_type="f32"/>
			<output>
				<port id="0" precision="FP32">
					<dim>8</dim>
					<dim>1</dim>
					<dim>1</dim>
					<dim>1</dim>
				</port>
			</output>
		</layer>
		<layer id="146" name="373108915364/restored_convert/quantized1882930790" type="Const" version="opset1">
			<data offset="1580" size="72" shape="8,1,3,3" element_type="i8"/>
			<output>
				<port id="0" precision="I8">
					<dim>8</dim>
					<dim>1</dim>
					<dim>3</dim>
					<dim>3</dim>
				</port>
			</output>
		</layer>
		<layer id="147" name="373108915364/restored_convert/quantized/to_f32" type="Convert" version="opset1">
			<data destination_type="f32"/>
			<input>
				<port id="0">
					<dim>8</dim>
					<dim>1</dim>
					<dim>3</dim>
					<dim>3</dim>
				</port>
			</input>
			<output>
				<port id="1" precision="FP32">
					<dim>8</dim>
					<dim>1</dim>
					<dim>3</dim>
					<dim>3</dim>
				</port>
			</output>
		</layer>
		<layer id="148" name="L0011_Conv2d_BN/WithoutBiases/fq_weights_1/mulpiply_by_scale" type="Multiply" version="opset1">
			<data auto_broadcast="numpy"/>
			<input>
				<port id="0">
					<dim>8</dim>
					<dim>1</dim>
					<dim>3</dim>
					<dim>3</dim>
				</port>
				<port id="1">
					<dim>8</dim>
					<dim>1</dim>
					<dim>1</dim>
					<dim>1</dim>
				</port>
			</input>
			<output>
				<port id="2" precision="FP32">
					<dim>8</dim>
					<dim>1</dim>
					<dim>3</dim>
					<dim>3</dim>
				</port>
			</output>
		</layer>
		<layer id="149" name="25381" type="Reshape" version="opset1">
			<data special_zero="true"/>
			<input>
				<port id="0">
					<dim>8</dim>
					<dim>1</dim>
					<dim>3</dim>
					<dim>3</dim>
				</port>
				<port id="1">
					<dim>5</dim>
				</port>
			</input>
			<output>
				<port id="2" precision="FP32">
					<dim>8</dim>
					<dim>1</dim>
					<dim>1</dim>
					<dim>3</dim>
					<dim>3</dim>
				</port>
			</output>
		</layer>
		<layer id="150" name="L0011_Conv2d_BN/WithoutBiases" type="GroupConvolution" version="opset1">
			<data auto_pad="explicit" strides="1,1" dilations="1,1" pads_begin="1,1" pads_end="1,1"/>
			<input>
				<port id="0">
					<dim>1</dim>
					<dim>8</dim>
					<dim>256</dim>
					<dim>448</dim>
				</port>
				<port id="1">
					<dim>8</dim>
					<dim>1</dim>
					<dim>1</dim>
					<dim>3</dim>
					<dim>3</dim>
				</port>
			</input>
			<output>
				<port id="2" precision="FP32">
					<dim>1</dim>
					<dim>8</dim>
					<dim>256</dim>
					<dim>448</dim>
				</port>
			</output>
		</layer>
		<layer id="151" name="L0011_Conv2d_BN/Dims6347109229677" type="Const" version="opset1">
			<data offset="1652" size="16" shape="1,8,1,1" element_type="f16"/>
			<output>
				<port id="0" precision="FP16">
					<dim>1</dim>
					<dim>8</dim>
					<dim>1</dim>
					<dim>1</dim>
				</port>
			</output>
		</layer>
		<layer id="152" name="L0011_Conv2d_BN/Dims6347109215365/restored_convert" type="Convert" version="opset1">
			<data destination_type="f32"/>
			<rt_info>
				<attribute name="decompression" version="0"/>
			</rt_info>
			<input>
				<port id="0">
					<dim>1</dim>
					<dim>8</dim>
					<dim>1</dim>
					<dim>1</dim>
				</port>
			</input>
			<output>
				<port id="1" precision="FP32">
					<dim>1</dim>
					<dim>8</dim>
					<dim>1</dim>
					<dim>1</dim>
				</port>
			</output>
		</layer>
		<layer id="153" name="L0011_Conv2d_BN" type="Add" version="opset1">
			<data auto_broadcast="numpy"/>
			<input>
				<port id="0">
					<dim>1</dim>
					<dim>8</dim>
					<dim>256</dim>
					<dim>448</dim>
				</port>
				<port id="1">
					<dim>1</dim>
					<dim>8</dim>
					<dim>1</dim>
					<dim>1</dim>
				</port>
			</input>
			<output>
				<port id="2" precision="FP32" names="L0011_Conv2d_BN">
					<dim>1</dim>
					<dim>8</dim>
					<dim>256</dim>
					<dim>448</dim>
				</port>
			</output>
		</layer>
		<layer id="154" name="L0012_ReLU" type="ReLU" version="opset1">
			<input>
				<port id="0">
					<dim>1</dim>
					<dim>8</dim>
					<dim>256</dim>
					<dim>448</dim>
				</port>
			</input>
			<output>
				<port id="1" precision="FP32" names="L0012_ReLU">
					<dim>1</dim>
					<dim>8</dim>
					<dim>256</dim>
					<dim>448</dim>
				</port>
			</output>
		</layer>
		<layer id="155" name="L0013_Conv2d_BN/WithoutBiases/fq_input_0" type="FakeQuantize" version="opset1">
			<data levels="256" auto_broadcast="numpy"/>
			<input>
				<port id="0">
					<dim>1</dim>
					<dim>8</dim>
					<dim>256</dim>
					<dim>448</dim>
				</port>
				<port id="1"/>
				<port id="2"/>
				<port id="3"/>
				<port id="4"/>
			</input>
			<output>
				<port id="5" precision="FP32">
					<dim>1</dim>
					<dim>8</dim>
					<dim>256</dim>
					<dim>448</dim>
				</port>
			</output>
		</layer>
		<layer id="156" name="L0013_Conv2d_BN/WithoutBiases/fq_weights_1/scale2000729878" type="Const" version="opset1">
			<data offset="1668" size="96" shape="24,1,1,1" element_type="f32"/>
			<output>
				<port id="0" precision="FP32">
					<dim>24</dim>
					<dim>1</dim>
					<dim>1</dim>
					<dim>1</dim>
				</port>
			</output>
		</layer>
		<layer id="157" name="571109615366/restored_convert/quantized1999929956" type="Const" version="opset1">
			<data offset="1764" size="192" shape="24,8,1,1" element_type="i8"/>
			<output>
				<port id="0" precision="I8">
					<dim>24</dim>
					<dim>8</dim>
					<dim>1</dim>
					<dim>1</dim>
				</port>
			</output>
		</layer>
		<layer id="158" name="571109615366/restored_convert/quantized/to_f32" type="Convert" version="opset1">
			<data destination_type="f32"/>
			<input>
				<port id="0">
					<dim>24</dim>
					<dim>8</dim>
					<dim>1</dim>
					<dim>1</dim>
				</port>
			</input>
			<output>
				<port id="1" precision="FP32">
					<dim>24</dim>
					<dim>8</dim>
					<dim>1</dim>
					<dim>1</dim>
				</port>
			</output>
		</layer>
		<layer id="159" name="L0013_Conv2d_BN/WithoutBiases/fq_weights_1/mulpiply_by_scale" type="Multiply" version="opset1">
			<data auto_broadcast="numpy"/>
			<input>
				<port id="0">
					<dim>24</dim>
					<dim>8</dim>
					<dim>1</dim>
					<dim>1</dim>
				</port>
				<port id="1">
					<dim>24</dim>
					<dim>1</dim>
					<dim>1</dim>
					<dim>1</dim>
				</port>
			</input>
			<output>
				<port id="2" precision="FP32">
					<dim>24</dim>
					<dim>8</dim>
					<dim>1</dim>
					<dim>1</dim>
				</port>
			</output>
		</layer>
		<layer id="160" name="L0013_Conv2d_BN/WithoutBiases" type="Convolution" version="opset1">
			<data auto_pad="explicit" strides="1,1" dilations="1,1" pads_begin="0,0" pads_end="0,0"/>
			<input>
				<port id="0">
					<dim>1</dim>
					<dim>8</dim>
					<dim>256</dim>
					<dim>448</dim>
				</port>
				<port id="1">
					<dim>24</dim>
					<dim>8</dim>
					<dim>1</dim>
					<dim>1</dim>
				</port>
			</input>
			<output>
				<port id="2" precision="FP32">
					<dim>1</dim>
					<dim>24</dim>
					<dim>256</dim>
					<dim>448</dim>
				</port>
			</output>
		</layer>
		<layer id="161" name="L0013_Conv2d_BN/Dims6287109929419" type="Const" version="opset1">
			<data offset="1956" size="48" shape="1,24,1,1" element_type="f16"/>
			<output>
				<port id="0" precision="FP16">
					<dim>1</dim>
					<dim>24</dim>
					<dim>1</dim>
					<dim>1</dim>
				</port>
			</output>
		</layer>
		<layer id="162" name="L0013_Conv2d_BN/Dims6287109915367/restored_convert" type="Convert" version="opset1">
			<data destination_type="f32"/>
			<rt_info>
				<attribute name="decompression" version="0"/>
			</rt_info>
			<input>
				<port id="0">
					<dim>1</dim>
					<dim>24</dim>
					<dim>1</dim>
					<dim>1</dim>
				</port>
			</input>
			<output>
				<port id="1" precision="FP32">
					<dim>1</dim>
					<dim>24</dim>
					<dim>1</dim>
					<dim>1</dim>
				</port>
			</output>
		</layer>
		<layer id="163" name="L0013_Conv2d_BN" type="Add" version="opset1">
			<data auto_broadcast="numpy"/>
			<input>
				<port id="0">
					<dim>1</dim>
					<dim>24</dim>
					<dim>256</dim>
					<dim>448</dim>
				</port>
				<port id="1">
					<dim>1</dim>
					<dim>24</dim>
					<dim>1</dim>
					<dim>1</dim>
				</port>
			</input>
			<output>
				<port id="2" precision="FP32" names="L0013_Conv2d_BN">
					<dim>1</dim>
					<dim>24</dim>
					<dim>256</dim>
					<dim>448</dim>
				</port>
			</output>
		</layer>
		<layer id="164" name="L0015_AddBackward1/fq_input_0" type="FakeQuantize" version="opset1">
			<data levels="256" auto_broadcast="numpy"/>
			<input>
				<port id="0">
					<dim>1</dim>
					<dim>24</dim>
					<dim>256</dim>
					<dim>448</dim>
				</port>
				<port id="1"/>
				<port id="2"/>
				<port id="3"/>
				<port id="4"/>
			</input>
			<output>
				<port id="5" precision="FP32">
					<dim>1</dim>
					<dim>24</dim>
					<dim>256</dim>
					<dim>448</dim>
				</port>
			</output>
		</layer>
		<layer id="165" name="6741674529362" type="Const" version="opset1">
			<data offset="2004" size="4" shape="" element_type="f32"/>
			<output>
				<port id="0" precision="FP32"/>
			</output>
		</layer>
		<layer id="166" name="6742674629521" type="Const" version="opset1">
			<data offset="2008" size="4" shape="" element_type="f32"/>
			<output>
				<port id="0" precision="FP32"/>
			</output>
		</layer>
		<layer id="167" name="6743674729788" type="Const" version="opset1">
			<data offset="2004" size="4" shape="" element_type="f32"/>
			<output>
				<port id="0" precision="FP32"/>
			</output>
		</layer>
		<layer id="168" name="6744674831249" type="Const" version="opset1">
			<data offset="2008" size="4" shape="" element_type="f32"/>
			<output>
				<port id="0" precision="FP32"/>
			</output>
		</layer>
		<layer id="169" name="L0014_Conv2d_BN/WithoutBiases/fq_weights_1/scale2153731321" type="Const" version="opset1">
			<data offset="2012" size="96" shape="24,1,1,1" element_type="f32"/>
			<output>
				<port id="0" precision="FP32">
					<dim>24</dim>
					<dim>1</dim>
					<dim>1</dim>
					<dim>1</dim>
				</port>
			</output>
		</layer>
		<layer id="170" name="455110215368/restored_convert/quantized2152930256" type="Const" version="opset1">
			<data offset="2108" size="384" shape="24,16,1,1" element_type="i8"/>
			<output>
				<port id="0" precision="I8">
					<dim>24</dim>
					<dim>16</dim>
					<dim>1</dim>
					<dim>1</dim>
				</port>
			</output>
		</layer>
		<layer id="171" name="455110215368/restored_convert/quantized/to_f32" type="Convert" version="opset1">
			<data destination_type="f32"/>
			<input>
				<port id="0">
					<dim>24</dim>
					<dim>16</dim>
					<dim>1</dim>
					<dim>1</dim>
				</port>
			</input>
			<output>
				<port id="1" precision="FP32">
					<dim>24</dim>
					<dim>16</dim>
					<dim>1</dim>
					<dim>1</dim>
				</port>
			</output>
		</layer>
		<layer id="172" name="L0014_Conv2d_BN/WithoutBiases/fq_weights_1/mulpiply_by_scale" type="Multiply" version="opset1">
			<data auto_broadcast="numpy"/>
			<input>
				<port id="0">
					<dim>24</dim>
					<dim>16</dim>
					<dim>1</dim>
					<dim>1</dim>
				</port>
				<port id="1">
					<dim>24</dim>
					<dim>1</dim>
					<dim>1</dim>
					<dim>1</dim>
				</port>
			</input>
			<output>
				<port id="2" precision="FP32">
					<dim>24</dim>
					<dim>16</dim>
					<dim>1</dim>
					<dim>1</dim>
				</port>
			</output>
		</layer>
		<layer id="173" name="L0014_Conv2d_BN/WithoutBiases" type="Convolution" version="opset1">
			<data auto_pad="explicit" strides="1,1" dilations="1,1" pads_begin="0,0" pads_end="0,0"/>
			<input>
				<port id="0">
					<dim>1</dim>
					<dim>16</dim>
					<dim>256</dim>
					<dim>448</dim>
				</port>
				<port id="1">
					<dim>24</dim>
					<dim>16</dim>
					<dim>1</dim>
					<dim>1</dim>
				</port>
			</input>
			<output>
				<port id="2" precision="FP32">
					<dim>1</dim>
					<dim>24</dim>
					<dim>256</dim>
					<dim>448</dim>
				</port>
			</output>
		</layer>
		<layer id="174" name="L0014_Conv2d_BN/Dims6065110531423" type="Const" version="opset1">
			<data offset="2492" size="48" shape="1,24,1,1" element_type="f16"/>
			<output>
				<port id="0" precision="FP16">
					<dim>1</dim>
					<dim>24</dim>
					<dim>1</dim>
					<dim>1</dim>
				</port>
			</output>
		</layer>
		<layer id="175" name="L0014_Conv2d_BN/Dims6065110515369/restored_convert" type="Convert" version="opset1">
			<data destination_type="f32"/>
			<rt_info>
				<attribute name="decompression" version="0"/>
			</rt_info>
			<input>
				<port id="0">
					<dim>1</dim>
					<dim>24</dim>
					<dim>1</dim>
					<dim>1</dim>
				</port>
			</input>
			<output>
				<port id="1" precision="FP32">
					<dim>1</dim>
					<dim>24</dim>
					<dim>1</dim>
					<dim>1</dim>
				</port>
			</output>
		</layer>
		<layer id="176" name="L0014_Conv2d_BN" type="Add" version="opset1">
			<data auto_broadcast="numpy"/>
			<input>
				<port id="0">
					<dim>1</dim>
					<dim>24</dim>
					<dim>256</dim>
					<dim>448</dim>
				</port>
				<port id="1">
					<dim>1</dim>
					<dim>24</dim>
					<dim>1</dim>
					<dim>1</dim>
				</port>
			</input>
			<output>
				<port id="2" precision="FP32" names="L0014_Conv2d_BN">
					<dim>1</dim>
					<dim>24</dim>
					<dim>256</dim>
					<dim>448</dim>
				</port>
			</output>
		</layer>
		<layer id="177" name="L0015_AddBackward1/fq_input_1" type="FakeQuantize" version="opset1">
			<data levels="256" auto_broadcast="numpy"/>
			<input>
				<port id="0">
					<dim>1</dim>
					<dim>24</dim>
					<dim>256</dim>
					<dim>448</dim>
				</port>
				<port id="1"/>
				<port id="2"/>
				<port id="3"/>
				<port id="4"/>
			</input>
			<output>
				<port id="5" precision="FP32">
					<dim>1</dim>
					<dim>24</dim>
					<dim>256</dim>
					<dim>448</dim>
				</port>
			</output>
		</layer>
		<layer id="178" name="L0015_AddBackward1" type="Add" version="opset1">
			<data auto_broadcast="numpy"/>
			<input>
				<port id="0">
					<dim>1</dim>
					<dim>24</dim>
					<dim>256</dim>
					<dim>448</dim>
				</port>
				<port id="1">
					<dim>1</dim>
					<dim>24</dim>
					<dim>256</dim>
					<dim>448</dim>
				</port>
			</input>
			<output>
				<port id="2" precision="FP32" names="L0015_AddBackward1">
					<dim>1</dim>
					<dim>24</dim>
					<dim>256</dim>
					<dim>448</dim>
				</port>
			</output>
		</layer>
		<layer id="179" name="L0016_ReLU" type="ReLU" version="opset1">
			<input>
				<port id="0">
					<dim>1</dim>
					<dim>24</dim>
					<dim>256</dim>
					<dim>448</dim>
				</port>
			</input>
			<output>
				<port id="1" precision="FP32" names="L0016_ReLU">
					<dim>1</dim>
					<dim>24</dim>
					<dim>256</dim>
					<dim>448</dim>
				</port>
			</output>
		</layer>
		<layer id="180" name="L0017_Conv2d_BN/WithoutBiases/fq_input_0" type="FakeQuantize" version="opset1">
			<data levels="256" auto_broadcast="numpy"/>
			<input>
				<port id="0">
					<dim>1</dim>
					<dim>24</dim>
					<dim>256</dim>
					<dim>448</dim>
				</port>
				<port id="1"/>
				<port id="2"/>
				<port id="3"/>
				<port id="4"/>
			</input>
			<output>
				<port id="5" precision="FP32">
					<dim>1</dim>
					<dim>24</dim>
					<dim>256</dim>
					<dim>448</dim>
				</port>
			</output>
		</layer>
		<layer id="181" name="L0017_Conv2d_BN/WithoutBiases/fq_weights_1/scale1943730556" type="Const" version="opset1">
			<data offset="2540" size="32" shape="8,1,1,1" element_type="f32"/>
			<output>
				<port id="0" precision="FP32">
					<dim>8</dim>
					<dim>1</dim>
					<dim>1</dim>
					<dim>1</dim>
				</port>
			</output>
		</layer>
		<layer id="182" name="593111015370/restored_convert/quantized1942929152" type="Const" version="opset1">
			<data offset="2572" size="192" shape="8,24,1,1" element_type="i8"/>
			<output>
				<port id="0" precision="I8">
					<dim>8</dim>
					<dim>24</dim>
					<dim>1</dim>
					<dim>1</dim>
				</port>
			</output>
		</layer>
		<layer id="183" name="593111015370/restored_convert/quantized/to_f32" type="Convert" version="opset1">
			<data destination_type="f32"/>
			<input>
				<port id="0">
					<dim>8</dim>
					<dim>24</dim>
					<dim>1</dim>
					<dim>1</dim>
				</port>
			</input>
			<output>
				<port id="1" precision="FP32">
					<dim>8</dim>
					<dim>24</dim>
					<dim>1</dim>
					<dim>1</dim>
				</port>
			</output>
		</layer>
		<layer id="184" name="L0017_Conv2d_BN/WithoutBiases/fq_weights_1/mulpiply_by_scale" type="Multiply" version="opset1">
			<data auto_broadcast="numpy"/>
			<input>
				<port id="0">
					<dim>8</dim>
					<dim>24</dim>
					<dim>1</dim>
					<dim>1</dim>
				</port>
				<port id="1">
					<dim>8</dim>
					<dim>1</dim>
					<dim>1</dim>
					<dim>1</dim>
				</port>
			</input>
			<output>
				<port id="2" precision="FP32">
					<dim>8</dim>
					<dim>24</dim>
					<dim>1</dim>
					<dim>1</dim>
				</port>
			</output>
		</layer>
		<layer id="185" name="L0017_Conv2d_BN/WithoutBiases" type="Convolution" version="opset1">
			<data auto_pad="explicit" strides="1,1" dilations="1,1" pads_begin="0,0" pads_end="0,0"/>
			<input>
				<port id="0">
					<dim>1</dim>
					<dim>24</dim>
					<dim>256</dim>
					<dim>448</dim>
				</port>
				<port id="1">
					<dim>8</dim>
					<dim>24</dim>
					<dim>1</dim>
					<dim>1</dim>
				</port>
			</input>
			<output>
				<port id="2" precision="FP32">
					<dim>1</dim>
					<dim>8</dim>
					<dim>256</dim>
					<dim>448</dim>
				</port>
			</output>
		</layer>
		<layer id="186" name="L0017_Conv2d_BN/Dims6311111328873" type="Const" version="opset1">
			<data offset="2764" size="16" shape="1,8,1,1" element_type="f16"/>
			<output>
				<port id="0" precision="FP16">
					<dim>1</dim>
					<dim>8</dim>
					<dim>1</dim>
					<dim>1</dim>
				</port>
			</output>
		</layer>
		<layer id="187" name="L0017_Conv2d_BN/Dims6311111315371/restored_convert" type="Convert" version="opset1">
			<data destination_type="f32"/>
			<rt_info>
				<attribute name="decompression" version="0"/>
			</rt_info>
			<input>
				<port id="0">
					<dim>1</dim>
					<dim>8</dim>
					<dim>1</dim>
					<dim>1</dim>
				</port>
			</input>
			<output>
				<port id="1" precision="FP32">
					<dim>1</dim>
					<dim>8</dim>
					<dim>1</dim>
					<dim>1</dim>
				</port>
			</output>
		</layer>
		<layer id="188" name="L0017_Conv2d_BN" type="Add" version="opset1">
			<data auto_broadcast="numpy"/>
			<input>
				<port id="0">
					<dim>1</dim>
					<dim>8</dim>
					<dim>256</dim>
					<dim>448</dim>
				</port>
				<port id="1">
					<dim>1</dim>
					<dim>8</dim>
					<dim>1</dim>
					<dim>1</dim>
				</port>
			</input>
			<output>
				<port id="2" precision="FP32" names="L0017_Conv2d_BN">
					<dim>1</dim>
					<dim>8</dim>
					<dim>256</dim>
					<dim>448</dim>
				</port>
			</output>
		</layer>
		<layer id="189" name="L0018_ReLU" type="ReLU" version="opset1">
			<input>
				<port id="0">
					<dim>1</dim>
					<dim>8</dim>
					<dim>256</dim>
					<dim>448</dim>
				</port>
			</input>
			<output>
				<port id="1" precision="FP32" names="L0018_ReLU">
					<dim>1</dim>
					<dim>8</dim>
					<dim>256</dim>
					<dim>448</dim>
				</port>
			</output>
		</layer>
		<layer id="190" name="L0019_Conv2d_BN/WithoutBiases/fq_input_0" type="FakeQuantize" version="opset1">
			<data levels="256" auto_broadcast="numpy"/>
			<input>
				<port id="0">
					<dim>1</dim>
					<dim>8</dim>
					<dim>256</dim>
					<dim>448</dim>
				</port>
				<port id="1">
					<dim>1</dim>
					<dim>8</dim>
					<dim>1</dim>
					<dim>1</dim>
				</port>
				<port id="2">
					<dim>1</dim>
					<dim>8</dim>
					<dim>1</dim>
					<dim>1</dim>
				</port>
				<port id="3">
					<dim>1</dim>
					<dim>8</dim>
					<dim>1</dim>
					<dim>1</dim>
				</port>
				<port id="4">
					<dim>1</dim>
					<dim>8</dim>
					<dim>1</dim>
					<dim>1</dim>
				</port>
			</input>
			<output>
				<port id="5" precision="FP32">
					<dim>1</dim>
					<dim>8</dim>
					<dim>256</dim>
					<dim>448</dim>
				</port>
			</output>
		</layer>
		<layer id="191" name="L0019_Conv2d_BN/WithoutBiases/weights_shape2539630376" type="Const" version="opset1">
			<data offset="988" size="40" shape="5" element_type="i64"/>
			<output>
				<port id="0" precision="I64">
					<dim>5</dim>
				</port>
			</output>
		</layer>
		<layer id="192" name="L0019_Conv2d_BN/WithoutBiases/fq_weights_1/scale1847730223" type="Const" version="opset1">
			<data offset="2780" size="32" shape="8,1,1,1" element_type="f32"/>
			<output>
				<port id="0" precision="FP32">
					<dim>8</dim>
					<dim>1</dim>
					<dim>1</dim>
					<dim>1</dim>
				</port>
			</output>
		</layer>
		<layer id="193" name="339111715372/restored_convert/quantized1846930550" type="Const" version="opset1">
			<data offset="2812" size="72" shape="8,1,3,3" element_type="i8"/>
			<output>
				<port id="0" precision="I8">
					<dim>8</dim>
					<dim>1</dim>
					<dim>3</dim>
					<dim>3</dim>
				</port>
			</output>
		</layer>
		<layer id="194" name="339111715372/restored_convert/quantized/to_f32" type="Convert" version="opset1">
			<data destination_type="f32"/>
			<input>
				<port id="0">
					<dim>8</dim>
					<dim>1</dim>
					<dim>3</dim>
					<dim>3</dim>
				</port>
			</input>
			<output>
				<port id="1" precision="FP32">
					<dim>8</dim>
					<dim>1</dim>
					<dim>3</dim>
					<dim>3</dim>
				</port>
			</output>
		</layer>
		<layer id="195" name="L0019_Conv2d_BN/WithoutBiases/fq_weights_1/mulpiply_by_scale" type="Multiply" version="opset1">
			<data auto_broadcast="numpy"/>
			<input>
				<port id="0">
					<dim>8</dim>
					<dim>1</dim>
					<dim>3</dim>
					<dim>3</dim>
				</port>
				<port id="1">
					<dim>8</dim>
					<dim>1</dim>
					<dim>1</dim>
					<dim>1</dim>
				</port>
			</input>
			<output>
				<port id="2" precision="FP32">
					<dim>8</dim>
					<dim>1</dim>
					<dim>3</dim>
					<dim>3</dim>
				</port>
			</output>
		</layer>
		<layer id="196" name="25395" type="Reshape" version="opset1">
			<data special_zero="true"/>
			<input>
				<port id="0">
					<dim>8</dim>
					<dim>1</dim>
					<dim>3</dim>
					<dim>3</dim>
				</port>
				<port id="1">
					<dim>5</dim>
				</port>
			</input>
			<output>
				<port id="2" precision="FP32">
					<dim>8</dim>
					<dim>1</dim>
					<dim>1</dim>
					<dim>3</dim>
					<dim>3</dim>
				</port>
			</output>
		</layer>
		<layer id="197" name="L0019_Conv2d_BN/WithoutBiases" type="GroupConvolution" version="opset1">
			<data auto_pad="explicit" strides="1,1" dilations="1,1" pads_begin="1,1" pads_end="1,1"/>
			<input>
				<port id="0">
					<dim>1</dim>
					<dim>8</dim>
					<dim>256</dim>
					<dim>448</dim>
				</port>
				<port id="1">
					<dim>8</dim>
					<dim>1</dim>
					<dim>1</dim>
					<dim>3</dim>
					<dim>3</dim>
				</port>
			</input>
			<output>
				<port id="2" precision="FP32">
					<dim>1</dim>
					<dim>8</dim>
					<dim>256</dim>
					<dim>448</dim>
				</port>
			</output>
		</layer>
		<layer id="198" name="L0019_Conv2d_BN/Dims5969112029881" type="Const" version="opset1">
			<data offset="2884" size="16" shape="1,8,1,1" element_type="f16"/>
			<output>
				<port id="0" precision="FP16">
					<dim>1</dim>
					<dim>8</dim>
					<dim>1</dim>
					<dim>1</dim>
				</port>
			</output>
		</layer>
		<layer id="199" name="L0019_Conv2d_BN/Dims5969112015373/restored_convert" type="Convert" version="opset1">
			<data destination_type="f32"/>
			<rt_info>
				<attribute name="decompression" version="0"/>
			</rt_info>
			<input>
				<port id="0">
					<dim>1</dim>
					<dim>8</dim>
					<dim>1</dim>
					<dim>1</dim>
				</port>
			</input>
			<output>
				<port id="1" precision="FP32">
					<dim>1</dim>
					<dim>8</dim>
					<dim>1</dim>
					<dim>1</dim>
				</port>
			</output>
		</layer>
		<layer id="200" name="L0019_Conv2d_BN" type="Add" version="opset1">
			<data auto_broadcast="numpy"/>
			<input>
				<port id="0">
					<dim>1</dim>
					<dim>8</dim>
					<dim>256</dim>
					<dim>448</dim>
				</port>
				<port id="1">
					<dim>1</dim>
					<dim>8</dim>
					<dim>1</dim>
					<dim>1</dim>
				</port>
			</input>
			<output>
				<port id="2" precision="FP32" names="L0019_Conv2d_BN">
					<dim>1</dim>
					<dim>8</dim>
					<dim>256</dim>
					<dim>448</dim>
				</port>
			</output>
		</layer>
		<layer id="201" name="L0020_ReLU" type="ReLU" version="opset1">
			<input>
				<port id="0">
					<dim>1</dim>
					<dim>8</dim>
					<dim>256</dim>
					<dim>448</dim>
				</port>
			</input>
			<output>
				<port id="1" precision="FP32" names="L0020_ReLU">
					<dim>1</dim>
					<dim>8</dim>
					<dim>256</dim>
					<dim>448</dim>
				</port>
			</output>
		</layer>
		<layer id="202" name="L0021_Conv2d_BN/WithoutBiases/fq_input_0" type="FakeQuantize" version="opset1">
			<data levels="256" auto_broadcast="numpy"/>
			<input>
				<port id="0">
					<dim>1</dim>
					<dim>8</dim>
					<dim>256</dim>
					<dim>448</dim>
				</port>
				<port id="1"/>
				<port id="2"/>
				<port id="3"/>
				<port id="4"/>
			</input>
			<output>
				<port id="5" precision="FP32">
					<dim>1</dim>
					<dim>8</dim>
					<dim>256</dim>
					<dim>448</dim>
				</port>
			</output>
		</layer>
		<layer id="203" name="L0021_Conv2d_BN/WithoutBiases/fq_weights_1/scale2111729566" type="Const" version="opset1">
			<data offset="2900" size="96" shape="24,1,1,1" element_type="f32"/>
			<output>
				<port id="0" precision="FP32">
					<dim>24</dim>
					<dim>1</dim>
					<dim>1</dim>
					<dim>1</dim>
				</port>
			</output>
		</layer>
		<layer id="204" name="499112415374/restored_convert/quantized2110931216" type="Const" version="opset1">
			<data offset="2996" size="192" shape="24,8,1,1" element_type="i8"/>
			<output>
				<port id="0" precision="I8">
					<dim>24</dim>
					<dim>8</dim>
					<dim>1</dim>
					<dim>1</dim>
				</port>
			</output>
		</layer>
		<layer id="205" name="499112415374/restored_convert/quantized/to_f32" type="Convert" version="opset1">
			<data destination_type="f32"/>
			<input>
				<port id="0">
					<dim>24</dim>
					<dim>8</dim>
					<dim>1</dim>
					<dim>1</dim>
				</port>
			</input>
			<output>
				<port id="1" precision="FP32">
					<dim>24</dim>
					<dim>8</dim>
					<dim>1</dim>
					<dim>1</dim>
				</port>
			</output>
		</layer>
		<layer id="206" name="L0021_Conv2d_BN/WithoutBiases/fq_weights_1/mulpiply_by_scale" type="Multiply" version="opset1">
			<data auto_broadcast="numpy"/>
			<input>
				<port id="0">
					<dim>24</dim>
					<dim>8</dim>
					<dim>1</dim>
					<dim>1</dim>
				</port>
				<port id="1">
					<dim>24</dim>
					<dim>1</dim>
					<dim>1</dim>
					<dim>1</dim>
				</port>
			</input>
			<output>
				<port id="2" precision="FP32">
					<dim>24</dim>
					<dim>8</dim>
					<dim>1</dim>
					<dim>1</dim>
				</port>
			</output>
		</layer>
		<layer id="207" name="L0021_Conv2d_BN/WithoutBiases" type="Convolution" version="opset1">
			<data auto_pad="explicit" strides="1,1" dilations="1,1" pads_begin="0,0" pads_end="0,0"/>
			<input>
				<port id="0">
					<dim>1</dim>
					<dim>8</dim>
					<dim>256</dim>
					<dim>448</dim>
				</port>
				<port id="1">
					<dim>24</dim>
					<dim>8</dim>
					<dim>1</dim>
					<dim>1</dim>
				</port>
			</input>
			<output>
				<port id="2" precision="FP32">
					<dim>1</dim>
					<dim>24</dim>
					<dim>256</dim>
					<dim>448</dim>
				</port>
			</output>
		</layer>
		<layer id="208" name="L0021_Conv2d_BN/Dims6257112728795" type="Const" version="opset1">
			<data offset="3188" size="48" shape="1,24,1,1" element_type="f16"/>
			<output>
				<port id="0" precision="FP16">
					<dim>1</dim>
					<dim>24</dim>
					<dim>1</dim>
					<dim>1</dim>
				</port>
			</output>
		</layer>
		<layer id="209" name="L0021_Conv2d_BN/Dims6257112715375/restored_convert" type="Convert" version="opset1">
			<data destination_type="f32"/>
			<rt_info>
				<attribute name="decompression" version="0"/>
			</rt_info>
			<input>
				<port id="0">
					<dim>1</dim>
					<dim>24</dim>
					<dim>1</dim>
					<dim>1</dim>
				</port>
			</input>
			<output>
				<port id="1" precision="FP32">
					<dim>1</dim>
					<dim>24</dim>
					<dim>1</dim>
					<dim>1</dim>
				</port>
			</output>
		</layer>
		<layer id="210" name="L0021_Conv2d_BN" type="Add" version="opset1">
			<data auto_broadcast="numpy"/>
			<input>
				<port id="0">
					<dim>1</dim>
					<dim>24</dim>
					<dim>256</dim>
					<dim>448</dim>
				</port>
				<port id="1">
					<dim>1</dim>
					<dim>24</dim>
					<dim>1</dim>
					<dim>1</dim>
				</port>
			</input>
			<output>
				<port id="2" precision="FP32" names="L0021_Conv2d_BN">
					<dim>1</dim>
					<dim>24</dim>
					<dim>256</dim>
					<dim>448</dim>
				</port>
			</output>
		</layer>
		<layer id="211" name="L0022_AddBackward1/fq_input_0" type="FakeQuantize" version="opset1">
			<data levels="256" auto_broadcast="numpy"/>
			<input>
				<port id="0">
					<dim>1</dim>
					<dim>24</dim>
					<dim>256</dim>
					<dim>448</dim>
				</port>
				<port id="1"/>
				<port id="2"/>
				<port id="3"/>
				<port id="4"/>
			</input>
			<output>
				<port id="5" precision="FP32">
					<dim>1</dim>
					<dim>24</dim>
					<dim>256</dim>
					<dim>448</dim>
				</port>
			</output>
		</layer>
		<layer id="212" name="L0022_AddBackward1" type="Add" version="opset1">
			<data auto_broadcast="numpy"/>
			<input>
				<port id="0">
					<dim>1</dim>
					<dim>24</dim>
					<dim>256</dim>
					<dim>448</dim>
				</port>
				<port id="1">
					<dim>1</dim>
					<dim>24</dim>
					<dim>256</dim>
					<dim>448</dim>
				</port>
			</input>
			<output>
				<port id="2" precision="FP32" names="L0022_AddBackward1">
					<dim>1</dim>
					<dim>24</dim>
					<dim>256</dim>
					<dim>448</dim>
				</port>
			</output>
		</layer>
		<layer id="213" name="L0023_ReLU" type="ReLU" version="opset1">
			<input>
				<port id="0">
					<dim>1</dim>
					<dim>24</dim>
					<dim>256</dim>
					<dim>448</dim>
				</port>
			</input>
			<output>
				<port id="1" precision="FP32" names="L0023_ReLU">
					<dim>1</dim>
					<dim>24</dim>
					<dim>256</dim>
					<dim>448</dim>
				</port>
			</output>
		</layer>
		<layer id="214" name="L0024_Conv2d_BN/WithoutBiases/fq_input_0" type="FakeQuantize" version="opset1">
			<data levels="256" auto_broadcast="numpy"/>
			<input>
				<port id="0">
					<dim>1</dim>
					<dim>24</dim>
					<dim>256</dim>
					<dim>448</dim>
				</port>
				<port id="1"/>
				<port id="2"/>
				<port id="3"/>
				<port id="4"/>
			</input>
			<output>
				<port id="5" precision="FP32">
					<dim>1</dim>
					<dim>24</dim>
					<dim>256</dim>
					<dim>448</dim>
				</port>
			</output>
		</layer>
		<layer id="215" name="L0024_Conv2d_BN/WithoutBiases/fq_weights_1/scale1757729428" type="Const" version="opset1">
			<data offset="3236" size="32" shape="8,1,1,1" element_type="f32"/>
			<output>
				<port id="0" precision="FP32">
					<dim>8</dim>
					<dim>1</dim>
					<dim>1</dim>
					<dim>1</dim>
				</port>
			</output>
		</layer>
		<layer id="216" name="545113215376/restored_convert/quantized1756931906" type="Const" version="opset1">
			<data offset="3268" size="192" shape="8,24,1,1" element_type="i8"/>
			<output>
				<port id="0" precision="I8">
					<dim>8</dim>
					<dim>24</dim>
					<dim>1</dim>
					<dim>1</dim>
				</port>
			</output>
		</layer>
		<layer id="217" name="545113215376/restored_convert/quantized/to_f32" type="Convert" version="opset1">
			<data destination_type="f32"/>
			<input>
				<port id="0">
					<dim>8</dim>
					<dim>24</dim>
					<dim>1</dim>
					<dim>1</dim>
				</port>
			</input>
			<output>
				<port id="1" precision="FP32">
					<dim>8</dim>
					<dim>24</dim>
					<dim>1</dim>
					<dim>1</dim>
				</port>
			</output>
		</layer>
		<layer id="218" name="L0024_Conv2d_BN/WithoutBiases/fq_weights_1/mulpiply_by_scale" type="Multiply" version="opset1">
			<data auto_broadcast="numpy"/>
			<input>
				<port id="0">
					<dim>8</dim>
					<dim>24</dim>
					<dim>1</dim>
					<dim>1</dim>
				</port>
				<port id="1">
					<dim>8</dim>
					<dim>1</dim>
					<dim>1</dim>
					<dim>1</dim>
				</port>
			</input>
			<output>
				<port id="2" precision="FP32">
					<dim>8</dim>
					<dim>24</dim>
					<dim>1</dim>
					<dim>1</dim>
				</port>
			</output>
		</layer>
		<layer id="219" name="L0024_Conv2d_BN/WithoutBiases" type="Convolution" version="opset1">
			<data auto_pad="explicit" strides="1,1" dilations="1,1" pads_begin="0,0" pads_end="0,0"/>
			<input>
				<port id="0">
					<dim>1</dim>
					<dim>24</dim>
					<dim>256</dim>
					<dim>448</dim>
				</port>
				<port id="1">
					<dim>8</dim>
					<dim>24</dim>
					<dim>1</dim>
					<dim>1</dim>
				</port>
			</input>
			<output>
				<port id="2" precision="FP32">
					<dim>1</dim>
					<dim>8</dim>
					<dim>256</dim>
					<dim>448</dim>
				</port>
			</output>
		</layer>
		<layer id="220" name="L0024_Conv2d_BN/Dims6113113529005" type="Const" version="opset1">
			<data offset="3460" size="16" shape="1,8,1,1" element_type="f16"/>
			<output>
				<port id="0" precision="FP16">
					<dim>1</dim>
					<dim>8</dim>
					<dim>1</dim>
					<dim>1</dim>
				</port>
			</output>
		</layer>
		<layer id="221" name="L0024_Conv2d_BN/Dims6113113515377/restored_convert" type="Convert" version="opset1">
			<data destination_type="f32"/>
			<rt_info>
				<attribute name="decompression" version="0"/>
			</rt_info>
			<input>
				<port id="0">
					<dim>1</dim>
					<dim>8</dim>
					<dim>1</dim>
					<dim>1</dim>
				</port>
			</input>
			<output>
				<port id="1" precision="FP32">
					<dim>1</dim>
					<dim>8</dim>
					<dim>1</dim>
					<dim>1</dim>
				</port>
			</output>
		</layer>
		<layer id="222" name="L0024_Conv2d_BN" type="Add" version="opset1">
			<data auto_broadcast="numpy"/>
			<input>
				<port id="0">
					<dim>1</dim>
					<dim>8</dim>
					<dim>256</dim>
					<dim>448</dim>
				</port>
				<port id="1">
					<dim>1</dim>
					<dim>8</dim>
					<dim>1</dim>
					<dim>1</dim>
				</port>
			</input>
			<output>
				<port id="2" precision="FP32" names="L0024_Conv2d_BN">
					<dim>1</dim>
					<dim>8</dim>
					<dim>256</dim>
					<dim>448</dim>
				</port>
			</output>
		</layer>
		<layer id="223" name="L0025_ReLU" type="ReLU" version="opset1">
			<input>
				<port id="0">
					<dim>1</dim>
					<dim>8</dim>
					<dim>256</dim>
					<dim>448</dim>
				</port>
			</input>
			<output>
				<port id="1" precision="FP32" names="L0025_ReLU">
					<dim>1</dim>
					<dim>8</dim>
					<dim>256</dim>
					<dim>448</dim>
				</port>
			</output>
		</layer>
		<layer id="224" name="L0026_Conv2d_BN/WithoutBiases/fq_input_0" type="FakeQuantize" version="opset1">
			<data levels="256" auto_broadcast="numpy"/>
			<input>
				<port id="0">
					<dim>1</dim>
					<dim>8</dim>
					<dim>256</dim>
					<dim>448</dim>
				</port>
				<port id="1">
					<dim>1</dim>
					<dim>8</dim>
					<dim>1</dim>
					<dim>1</dim>
				</port>
				<port id="2">
					<dim>1</dim>
					<dim>8</dim>
					<dim>1</dim>
					<dim>1</dim>
				</port>
				<port id="3">
					<dim>1</dim>
					<dim>8</dim>
					<dim>1</dim>
					<dim>1</dim>
				</port>
				<port id="4">
					<dim>1</dim>
					<dim>8</dim>
					<dim>1</dim>
					<dim>1</dim>
				</port>
			</input>
			<output>
				<port id="5" precision="FP32">
					<dim>1</dim>
					<dim>8</dim>
					<dim>256</dim>
					<dim>448</dim>
				</port>
			</output>
		</layer>
		<layer id="225" name="L0026_Conv2d_BN/WithoutBiases/weights_shape2541031015" type="Const" version="opset1">
			<data offset="988" size="40" shape="5" element_type="i64"/>
			<output>
				<port id="0" precision="I64">
					<dim>5</dim>
				</port>
			</output>
		</layer>
		<layer id="226" name="L0026_Conv2d_BN/WithoutBiases/fq_weights_1/scale2015730919" type="Const" version="opset1">
			<data offset="3476" size="32" shape="8,1,1,1" element_type="f32"/>
			<output>
				<port id="0" precision="FP32">
					<dim>8</dim>
					<dim>1</dim>
					<dim>1</dim>
					<dim>1</dim>
				</port>
			</output>
		</layer>
		<layer id="227" name="439113915378/restored_convert/quantized2014929353" type="Const" version="opset1">
			<data offset="3508" size="72" shape="8,1,3,3" element_type="i8"/>
			<output>
				<port id="0" precision="I8">
					<dim>8</dim>
					<dim>1</dim>
					<dim>3</dim>
					<dim>3</dim>
				</port>
			</output>
		</layer>
		<layer id="228" name="439113915378/restored_convert/quantized/to_f32" type="Convert" version="opset1">
			<data destination_type="f32"/>
			<input>
				<port id="0">
					<dim>8</dim>
					<dim>1</dim>
					<dim>3</dim>
					<dim>3</dim>
				</port>
			</input>
			<output>
				<port id="1" precision="FP32">
					<dim>8</dim>
					<dim>1</dim>
					<dim>3</dim>
					<dim>3</dim>
				</port>
			</output>
		</layer>
		<layer id="229" name="L0026_Conv2d_BN/WithoutBiases/fq_weights_1/mulpiply_by_scale" type="Multiply" version="opset1">
			<data auto_broadcast="numpy"/>
			<input>
				<port id="0">
					<dim>8</dim>
					<dim>1</dim>
					<dim>3</dim>
					<dim>3</dim>
				</port>
				<port id="1">
					<dim>8</dim>
					<dim>1</dim>
					<dim>1</dim>
					<dim>1</dim>
				</port>
			</input>
			<output>
				<port id="2" precision="FP32">
					<dim>8</dim>
					<dim>1</dim>
					<dim>3</dim>
					<dim>3</dim>
				</port>
			</output>
		</layer>
		<layer id="230" name="25409" type="Reshape" version="opset1">
			<data special_zero="true"/>
			<input>
				<port id="0">
					<dim>8</dim>
					<dim>1</dim>
					<dim>3</dim>
					<dim>3</dim>
				</port>
				<port id="1">
					<dim>5</dim>
				</port>
			</input>
			<output>
				<port id="2" precision="FP32">
					<dim>8</dim>
					<dim>1</dim>
					<dim>1</dim>
					<dim>3</dim>
					<dim>3</dim>
				</port>
			</output>
		</layer>
		<layer id="231" name="L0026_Conv2d_BN/WithoutBiases" type="GroupConvolution" version="opset1">
			<data auto_pad="explicit" strides="1,1" dilations="1,1" pads_begin="1,1" pads_end="1,1"/>
			<input>
				<port id="0">
					<dim>1</dim>
					<dim>8</dim>
					<dim>256</dim>
					<dim>448</dim>
				</port>
				<port id="1">
					<dim>8</dim>
					<dim>1</dim>
					<dim>1</dim>
					<dim>3</dim>
					<dim>3</dim>
				</port>
			</input>
			<output>
				<port id="2" precision="FP32">
					<dim>1</dim>
					<dim>8</dim>
					<dim>256</dim>
					<dim>448</dim>
				</port>
			</output>
		</layer>
		<layer id="232" name="L0026_Conv2d_BN/Dims6047114229890" type="Const" version="opset1">
			<data offset="3580" size="16" shape="1,8,1,1" element_type="f16"/>
			<output>
				<port id="0" precision="FP16">
					<dim>1</dim>
					<dim>8</dim>
					<dim>1</dim>
					<dim>1</dim>
				</port>
			</output>
		</layer>
		<layer id="233" name="L0026_Conv2d_BN/Dims6047114215379/restored_convert" type="Convert" version="opset1">
			<data destination_type="f32"/>
			<rt_info>
				<attribute name="decompression" version="0"/>
			</rt_info>
			<input>
				<port id="0">
					<dim>1</dim>
					<dim>8</dim>
					<dim>1</dim>
					<dim>1</dim>
				</port>
			</input>
			<output>
				<port id="1" precision="FP32">
					<dim>1</dim>
					<dim>8</dim>
					<dim>1</dim>
					<dim>1</dim>
				</port>
			</output>
		</layer>
		<layer id="234" name="L0026_Conv2d_BN" type="Add" version="opset1">
			<data auto_broadcast="numpy"/>
			<input>
				<port id="0">
					<dim>1</dim>
					<dim>8</dim>
					<dim>256</dim>
					<dim>448</dim>
				</port>
				<port id="1">
					<dim>1</dim>
					<dim>8</dim>
					<dim>1</dim>
					<dim>1</dim>
				</port>
			</input>
			<output>
				<port id="2" precision="FP32" names="L0026_Conv2d_BN">
					<dim>1</dim>
					<dim>8</dim>
					<dim>256</dim>
					<dim>448</dim>
				</port>
			</output>
		</layer>
		<layer id="235" name="L0027_ReLU" type="ReLU" version="opset1">
			<input>
				<port id="0">
					<dim>1</dim>
					<dim>8</dim>
					<dim>256</dim>
					<dim>448</dim>
				</port>
			</input>
			<output>
				<port id="1" precision="FP32" names="L0027_ReLU">
					<dim>1</dim>
					<dim>8</dim>
					<dim>256</dim>
					<dim>448</dim>
				</port>
			</output>
		</layer>
		<layer id="236" name="L0028_Conv2d_BN/WithoutBiases/fq_input_0" type="FakeQuantize" version="opset1">
			<data levels="256" auto_broadcast="numpy"/>
			<input>
				<port id="0">
					<dim>1</dim>
					<dim>8</dim>
					<dim>256</dim>
					<dim>448</dim>
				</port>
				<port id="1"/>
				<port id="2"/>
				<port id="3"/>
				<port id="4"/>
			</input>
			<output>
				<port id="5" precision="FP32">
					<dim>1</dim>
					<dim>8</dim>
					<dim>256</dim>
					<dim>448</dim>
				</port>
			</output>
		</layer>
		<layer id="237" name="L0028_Conv2d_BN/WithoutBiases/fq_weights_1/scale1802730202" type="Const" version="opset1">
			<data offset="3596" size="128" shape="32,1,1,1" element_type="f32"/>
			<output>
				<port id="0" precision="FP32">
					<dim>32</dim>
					<dim>1</dim>
					<dim>1</dim>
					<dim>1</dim>
				</port>
			</output>
		</layer>
		<layer id="238" name="519114615380/restored_convert/quantized1801929359" type="Const" version="opset1">
			<data offset="3724" size="256" shape="32,8,1,1" element_type="i8"/>
			<output>
				<port id="0" precision="I8">
					<dim>32</dim>
					<dim>8</dim>
					<dim>1</dim>
					<dim>1</dim>
				</port>
			</output>
		</layer>
		<layer id="239" name="519114615380/restored_convert/quantized/to_f32" type="Convert" version="opset1">
			<data destination_type="f32"/>
			<input>
				<port id="0">
					<dim>32</dim>
					<dim>8</dim>
					<dim>1</dim>
					<dim>1</dim>
				</port>
			</input>
			<output>
				<port id="1" precision="FP32">
					<dim>32</dim>
					<dim>8</dim>
					<dim>1</dim>
					<dim>1</dim>
				</port>
			</output>
		</layer>
		<layer id="240" name="L0028_Conv2d_BN/WithoutBiases/fq_weights_1/mulpiply_by_scale" type="Multiply" version="opset1">
			<data auto_broadcast="numpy"/>
			<input>
				<port id="0">
					<dim>32</dim>
					<dim>8</dim>
					<dim>1</dim>
					<dim>1</dim>
				</port>
				<port id="1">
					<dim>32</dim>
					<dim>1</dim>
					<dim>1</dim>
					<dim>1</dim>
				</port>
			</input>
			<output>
				<port id="2" precision="FP32">
					<dim>32</dim>
					<dim>8</dim>
					<dim>1</dim>
					<dim>1</dim>
				</port>
			</output>
		</layer>
		<layer id="241" name="L0028_Conv2d_BN/WithoutBiases" type="Convolution" version="opset1">
			<data auto_pad="explicit" strides="1,1" dilations="1,1" pads_begin="0,0" pads_end="0,0"/>
			<input>
				<port id="0">
					<dim>1</dim>
					<dim>8</dim>
					<dim>256</dim>
					<dim>448</dim>
				</port>
				<port id="1">
					<dim>32</dim>
					<dim>8</dim>
					<dim>1</dim>
					<dim>1</dim>
				</port>
			</input>
			<output>
				<port id="2" precision="FP32">
					<dim>1</dim>
					<dim>32</dim>
					<dim>256</dim>
					<dim>448</dim>
				</port>
			</output>
		</layer>
		<layer id="242" name="L0028_Conv2d_BN/Dims5891114930715" type="Const" version="opset1">
			<data offset="3980" size="64" shape="1,32,1,1" element_type="f16"/>
			<output>
				<port id="0" precision="FP16">
					<dim>1</dim>
					<dim>32</dim>
					<dim>1</dim>
					<dim>1</dim>
				</port>
			</output>
		</layer>
		<layer id="243" name="L0028_Conv2d_BN/Dims5891114915381/restored_convert" type="Convert" version="opset1">
			<data destination_type="f32"/>
			<rt_info>
				<attribute name="decompression" version="0"/>
			</rt_info>
			<input>
				<port id="0">
					<dim>1</dim>
					<dim>32</dim>
					<dim>1</dim>
					<dim>1</dim>
				</port>
			</input>
			<output>
				<port id="1" precision="FP32">
					<dim>1</dim>
					<dim>32</dim>
					<dim>1</dim>
					<dim>1</dim>
				</port>
			</output>
		</layer>
		<layer id="244" name="L0028_Conv2d_BN" type="Add" version="opset1">
			<data auto_broadcast="numpy"/>
			<input>
				<port id="0">
					<dim>1</dim>
					<dim>32</dim>
					<dim>256</dim>
					<dim>448</dim>
				</port>
				<port id="1">
					<dim>1</dim>
					<dim>32</dim>
					<dim>1</dim>
					<dim>1</dim>
				</port>
			</input>
			<output>
				<port id="2" precision="FP32" names="L0028_Conv2d_BN">
					<dim>1</dim>
					<dim>32</dim>
					<dim>256</dim>
					<dim>448</dim>
				</port>
			</output>
		</layer>
		<layer id="245" name="L0030_AddBackward1/fq_input_0" type="FakeQuantize" version="opset1">
			<data levels="256" auto_broadcast="numpy"/>
			<input>
				<port id="0">
					<dim>1</dim>
					<dim>32</dim>
					<dim>256</dim>
					<dim>448</dim>
				</port>
				<port id="1"/>
				<port id="2"/>
				<port id="3"/>
				<port id="4"/>
			</input>
			<output>
				<port id="5" precision="FP32">
					<dim>1</dim>
					<dim>32</dim>
					<dim>256</dim>
					<dim>448</dim>
				</port>
			</output>
		</layer>
		<layer id="246" name="4251425532089" type="Const" version="opset1">
			<data offset="4044" size="4" shape="" element_type="f32"/>
			<output>
				<port id="0" precision="FP32"/>
			</output>
		</layer>
		<layer id="247" name="4252425630229" type="Const" version="opset1">
			<data offset="4048" size="4" shape="" element_type="f32"/>
			<output>
				<port id="0" precision="FP32"/>
			</output>
		</layer>
		<layer id="248" name="4253425732188" type="Const" version="opset1">
			<data offset="4044" size="4" shape="" element_type="f32"/>
			<output>
				<port id="0" precision="FP32"/>
			</output>
		</layer>
		<layer id="249" name="4254425828735" type="Const" version="opset1">
			<data offset="4048" size="4" shape="" element_type="f32"/>
			<output>
				<port id="0" precision="FP32"/>
			</output>
		</layer>
		<layer id="250" name="L0029_Conv2d_BN/WithoutBiases/fq_weights_1/scale1904731279" type="Const" version="opset1">
			<data offset="4052" size="128" shape="32,1,1,1" element_type="f32"/>
			<output>
				<port id="0" precision="FP32">
					<dim>32</dim>
					<dim>1</dim>
					<dim>1</dim>
					<dim>1</dim>
				</port>
			</output>
		</layer>
		<layer id="251" name="577115215382/restored_convert/quantized1903932209" type="Const" version="opset1">
			<data offset="4180" size="768" shape="32,24,1,1" element_type="i8"/>
			<output>
				<port id="0" precision="I8">
					<dim>32</dim>
					<dim>24</dim>
					<dim>1</dim>
					<dim>1</dim>
				</port>
			</output>
		</layer>
		<layer id="252" name="577115215382/restored_convert/quantized/to_f32" type="Convert" version="opset1">
			<data destination_type="f32"/>
			<input>
				<port id="0">
					<dim>32</dim>
					<dim>24</dim>
					<dim>1</dim>
					<dim>1</dim>
				</port>
			</input>
			<output>
				<port id="1" precision="FP32">
					<dim>32</dim>
					<dim>24</dim>
					<dim>1</dim>
					<dim>1</dim>
				</port>
			</output>
		</layer>
		<layer id="253" name="L0029_Conv2d_BN/WithoutBiases/fq_weights_1/mulpiply_by_scale" type="Multiply" version="opset1">
			<data auto_broadcast="numpy"/>
			<input>
				<port id="0">
					<dim>32</dim>
					<dim>24</dim>
					<dim>1</dim>
					<dim>1</dim>
				</port>
				<port id="1">
					<dim>32</dim>
					<dim>1</dim>
					<dim>1</dim>
					<dim>1</dim>
				</port>
			</input>
			<output>
				<port id="2" precision="FP32">
					<dim>32</dim>
					<dim>24</dim>
					<dim>1</dim>
					<dim>1</dim>
				</port>
			</output>
		</layer>
		<layer id="254" name="L0029_Conv2d_BN/WithoutBiases" type="Convolution" version="opset1">
			<data auto_pad="explicit" strides="1,1" dilations="1,1" pads_begin="0,0" pads_end="0,0"/>
			<input>
				<port id="0">
					<dim>1</dim>
					<dim>24</dim>
					<dim>256</dim>
					<dim>448</dim>
				</port>
				<port id="1">
					<dim>32</dim>
					<dim>24</dim>
					<dim>1</dim>
					<dim>1</dim>
				</port>
			</input>
			<output>
				<port id="2" precision="FP32">
					<dim>1</dim>
					<dim>32</dim>
					<dim>256</dim>
					<dim>448</dim>
				</port>
			</output>
		</layer>
		<layer id="255" name="L0029_Conv2d_BN/Dims6299115531840" type="Const" version="opset1">
			<data offset="4948" size="64" shape="1,32,1,1" element_type="f16"/>
			<output>
				<port id="0" precision="FP16">
					<dim>1</dim>
					<dim>32</dim>
					<dim>1</dim>
					<dim>1</dim>
				</port>
			</output>
		</layer>
		<layer id="256" name="L0029_Conv2d_BN/Dims6299115515383/restored_convert" type="Convert" version="opset1">
			<data destination_type="f32"/>
			<rt_info>
				<attribute name="decompression" version="0"/>
			</rt_info>
			<input>
				<port id="0">
					<dim>1</dim>
					<dim>32</dim>
					<dim>1</dim>
					<dim>1</dim>
				</port>
			</input>
			<output>
				<port id="1" precision="FP32">
					<dim>1</dim>
					<dim>32</dim>
					<dim>1</dim>
					<dim>1</dim>
				</port>
			</output>
		</layer>
		<layer id="257" name="L0029_Conv2d_BN" type="Add" version="opset1">
			<data auto_broadcast="numpy"/>
			<input>
				<port id="0">
					<dim>1</dim>
					<dim>32</dim>
					<dim>256</dim>
					<dim>448</dim>
				</port>
				<port id="1">
					<dim>1</dim>
					<dim>32</dim>
					<dim>1</dim>
					<dim>1</dim>
				</port>
			</input>
			<output>
				<port id="2" precision="FP32" names="L0029_Conv2d_BN">
					<dim>1</dim>
					<dim>32</dim>
					<dim>256</dim>
					<dim>448</dim>
				</port>
			</output>
		</layer>
		<layer id="258" name="L0030_AddBackward1/fq_input_1" type="FakeQuantize" version="opset1">
			<data levels="256" auto_broadcast="numpy"/>
			<input>
				<port id="0">
					<dim>1</dim>
					<dim>32</dim>
					<dim>256</dim>
					<dim>448</dim>
				</port>
				<port id="1"/>
				<port id="2"/>
				<port id="3"/>
				<port id="4"/>
			</input>
			<output>
				<port id="5" precision="FP32">
					<dim>1</dim>
					<dim>32</dim>
					<dim>256</dim>
					<dim>448</dim>
				</port>
			</output>
		</layer>
		<layer id="259" name="L0030_AddBackward1" type="Add" version="opset1">
			<data auto_broadcast="numpy"/>
			<input>
				<port id="0">
					<dim>1</dim>
					<dim>32</dim>
					<dim>256</dim>
					<dim>448</dim>
				</port>
				<port id="1">
					<dim>1</dim>
					<dim>32</dim>
					<dim>256</dim>
					<dim>448</dim>
				</port>
			</input>
			<output>
				<port id="2" precision="FP32" names="L0030_AddBackward1">
					<dim>1</dim>
					<dim>32</dim>
					<dim>256</dim>
					<dim>448</dim>
				</port>
			</output>
		</layer>
		<layer id="260" name="L0031_ReLU" type="ReLU" version="opset1">
			<input>
				<port id="0">
					<dim>1</dim>
					<dim>32</dim>
					<dim>256</dim>
					<dim>448</dim>
				</port>
			</input>
			<output>
				<port id="1" precision="FP32" names="L0031_ReLU">
					<dim>1</dim>
					<dim>32</dim>
					<dim>256</dim>
					<dim>448</dim>
				</port>
			</output>
		</layer>
		<layer id="261" name="L0032_Conv2d_BN/WithoutBiases/fq_input_0" type="FakeQuantize" version="opset1">
			<data levels="256" auto_broadcast="numpy"/>
			<input>
				<port id="0">
					<dim>1</dim>
					<dim>32</dim>
					<dim>256</dim>
					<dim>448</dim>
				</port>
				<port id="1"/>
				<port id="2"/>
				<port id="3"/>
				<port id="4"/>
			</input>
			<output>
				<port id="5" precision="FP32">
					<dim>1</dim>
					<dim>32</dim>
					<dim>256</dim>
					<dim>448</dim>
				</port>
			</output>
		</layer>
		<layer id="262" name="L0032_Conv2d_BN/WithoutBiases/fq_weights_1/scale2051731978" type="Const" version="opset1">
			<data offset="5012" size="32" shape="8,1,1,1" element_type="f32"/>
			<output>
				<port id="0" precision="FP32">
					<dim>8</dim>
					<dim>1</dim>
					<dim>1</dim>
					<dim>1</dim>
				</port>
			</output>
		</layer>
		<layer id="263" name="343116015384/restored_convert/quantized2050929626" type="Const" version="opset1">
			<data offset="5044" size="256" shape="8,32,1,1" element_type="i8"/>
			<output>
				<port id="0" precision="I8">
					<dim>8</dim>
					<dim>32</dim>
					<dim>1</dim>
					<dim>1</dim>
				</port>
			</output>
		</layer>
		<layer id="264" name="343116015384/restored_convert/quantized/to_f32" type="Convert" version="opset1">
			<data destination_type="f32"/>
			<input>
				<port id="0">
					<dim>8</dim>
					<dim>32</dim>
					<dim>1</dim>
					<dim>1</dim>
				</port>
			</input>
			<output>
				<port id="1" precision="FP32">
					<dim>8</dim>
					<dim>32</dim>
					<dim>1</dim>
					<dim>1</dim>
				</port>
			</output>
		</layer>
		<layer id="265" name="L0032_Conv2d_BN/WithoutBiases/fq_weights_1/mulpiply_by_scale" type="Multiply" version="opset1">
			<data auto_broadcast="numpy"/>
			<input>
				<port id="0">
					<dim>8</dim>
					<dim>32</dim>
					<dim>1</dim>
					<dim>1</dim>
				</port>
				<port id="1">
					<dim>8</dim>
					<dim>1</dim>
					<dim>1</dim>
					<dim>1</dim>
				</port>
			</input>
			<output>
				<port id="2" precision="FP32">
					<dim>8</dim>
					<dim>32</dim>
					<dim>1</dim>
					<dim>1</dim>
				</port>
			</output>
		</layer>
		<layer id="266" name="L0032_Conv2d_BN/WithoutBiases" type="Convolution" version="opset1">
			<data auto_pad="explicit" strides="1,1" dilations="1,1" pads_begin="0,0" pads_end="0,0"/>
			<input>
				<port id="0">
					<dim>1</dim>
					<dim>32</dim>
					<dim>256</dim>
					<dim>448</dim>
				</port>
				<port id="1">
					<dim>8</dim>
					<dim>32</dim>
					<dim>1</dim>
					<dim>1</dim>
				</port>
			</input>
			<output>
				<port id="2" precision="FP32">
					<dim>1</dim>
					<dim>8</dim>
					<dim>256</dim>
					<dim>448</dim>
				</port>
			</output>
		</layer>
		<layer id="267" name="L0032_Conv2d_BN/Dims5699116331282" type="Const" version="opset1">
			<data offset="5300" size="16" shape="1,8,1,1" element_type="f16"/>
			<output>
				<port id="0" precision="FP16">
					<dim>1</dim>
					<dim>8</dim>
					<dim>1</dim>
					<dim>1</dim>
				</port>
			</output>
		</layer>
		<layer id="268" name="L0032_Conv2d_BN/Dims5699116315385/restored_convert" type="Convert" version="opset1">
			<data destination_type="f32"/>
			<rt_info>
				<attribute name="decompression" version="0"/>
			</rt_info>
			<input>
				<port id="0">
					<dim>1</dim>
					<dim>8</dim>
					<dim>1</dim>
					<dim>1</dim>
				</port>
			</input>
			<output>
				<port id="1" precision="FP32">
					<dim>1</dim>
					<dim>8</dim>
					<dim>1</dim>
					<dim>1</dim>
				</port>
			</output>
		</layer>
		<layer id="269" name="L0032_Conv2d_BN" type="Add" version="opset1">
			<data auto_broadcast="numpy"/>
			<input>
				<port id="0">
					<dim>1</dim>
					<dim>8</dim>
					<dim>256</dim>
					<dim>448</dim>
				</port>
				<port id="1">
					<dim>1</dim>
					<dim>8</dim>
					<dim>1</dim>
					<dim>1</dim>
				</port>
			</input>
			<output>
				<port id="2" precision="FP32" names="L0032_Conv2d_BN">
					<dim>1</dim>
					<dim>8</dim>
					<dim>256</dim>
					<dim>448</dim>
				</port>
			</output>
		</layer>
		<layer id="270" name="L0033_ReLU" type="ReLU" version="opset1">
			<input>
				<port id="0">
					<dim>1</dim>
					<dim>8</dim>
					<dim>256</dim>
					<dim>448</dim>
				</port>
			</input>
			<output>
				<port id="1" precision="FP32" names="L0033_ReLU">
					<dim>1</dim>
					<dim>8</dim>
					<dim>256</dim>
					<dim>448</dim>
				</port>
			</output>
		</layer>
		<layer id="271" name="L0034_Conv2d_BN/WithoutBiases/fq_input_0" type="FakeQuantize" version="opset1">
			<data levels="256" auto_broadcast="numpy"/>
			<input>
				<port id="0">
					<dim>1</dim>
					<dim>8</dim>
					<dim>256</dim>
					<dim>448</dim>
				</port>
				<port id="1">
					<dim>1</dim>
					<dim>8</dim>
					<dim>1</dim>
					<dim>1</dim>
				</port>
				<port id="2">
					<dim>1</dim>
					<dim>8</dim>
					<dim>1</dim>
					<dim>1</dim>
				</port>
				<port id="3">
					<dim>1</dim>
					<dim>8</dim>
					<dim>1</dim>
					<dim>1</dim>
				</port>
				<port id="4">
					<dim>1</dim>
					<dim>8</dim>
					<dim>1</dim>
					<dim>1</dim>
				</port>
			</input>
			<output>
				<port id="5" precision="FP32">
					<dim>1</dim>
					<dim>8</dim>
					<dim>256</dim>
					<dim>448</dim>
				</port>
			</output>
		</layer>
		<layer id="272" name="L0034_Conv2d_BN/WithoutBiases/weights_shape2542431705" type="Const" version="opset1">
			<data offset="988" size="40" shape="5" element_type="i64"/>
			<output>
				<port id="0" precision="I64">
					<dim>5</dim>
				</port>
			</output>
		</layer>
		<layer id="273" name="L0034_Conv2d_BN/WithoutBiases/fq_weights_1/scale1775728804" type="Const" version="opset1">
			<data offset="5316" size="32" shape="8,1,1,1" element_type="f32"/>
			<output>
				<port id="0" precision="FP32">
					<dim>8</dim>
					<dim>1</dim>
					<dim>1</dim>
					<dim>1</dim>
				</port>
			</output>
		</layer>
		<layer id="274" name="433116715386/restored_convert/quantized1774932053" type="Const" version="opset1">
			<data offset="5348" size="72" shape="8,1,3,3" element_type="i8"/>
			<output>
				<port id="0" precision="I8">
					<dim>8</dim>
					<dim>1</dim>
					<dim>3</dim>
					<dim>3</dim>
				</port>
			</output>
		</layer>
		<layer id="275" name="433116715386/restored_convert/quantized/to_f32" type="Convert" version="opset1">
			<data destination_type="f32"/>
			<input>
				<port id="0">
					<dim>8</dim>
					<dim>1</dim>
					<dim>3</dim>
					<dim>3</dim>
				</port>
			</input>
			<output>
				<port id="1" precision="FP32">
					<dim>8</dim>
					<dim>1</dim>
					<dim>3</dim>
					<dim>3</dim>
				</port>
			</output>
		</layer>
		<layer id="276" name="L0034_Conv2d_BN/WithoutBiases/fq_weights_1/mulpiply_by_scale" type="Multiply" version="opset1">
			<data auto_broadcast="numpy"/>
			<input>
				<port id="0">
					<dim>8</dim>
					<dim>1</dim>
					<dim>3</dim>
					<dim>3</dim>
				</port>
				<port id="1">
					<dim>8</dim>
					<dim>1</dim>
					<dim>1</dim>
					<dim>1</dim>
				</port>
			</input>
			<output>
				<port id="2" precision="FP32">
					<dim>8</dim>
					<dim>1</dim>
					<dim>3</dim>
					<dim>3</dim>
				</port>
			</output>
		</layer>
		<layer id="277" name="25423" type="Reshape" version="opset1">
			<data special_zero="true"/>
			<input>
				<port id="0">
					<dim>8</dim>
					<dim>1</dim>
					<dim>3</dim>
					<dim>3</dim>
				</port>
				<port id="1">
					<dim>5</dim>
				</port>
			</input>
			<output>
				<port id="2" precision="FP32">
					<dim>8</dim>
					<dim>1</dim>
					<dim>1</dim>
					<dim>3</dim>
					<dim>3</dim>
				</port>
			</output>
		</layer>
		<layer id="278" name="L0034_Conv2d_BN/WithoutBiases" type="GroupConvolution" version="opset1">
			<data auto_pad="explicit" strides="1,1" dilations="1,1" pads_begin="1,1" pads_end="1,1"/>
			<input>
				<port id="0">
					<dim>1</dim>
					<dim>8</dim>
					<dim>256</dim>
					<dim>448</dim>
				</port>
				<port id="1">
					<dim>8</dim>
					<dim>1</dim>
					<dim>1</dim>
					<dim>3</dim>
					<dim>3</dim>
				</port>
			</input>
			<output>
				<port id="2" precision="FP32">
					<dim>1</dim>
					<dim>8</dim>
					<dim>256</dim>
					<dim>448</dim>
				</port>
			</output>
		</layer>
		<layer id="279" name="L0034_Conv2d_BN/Dims6395117029686" type="Const" version="opset1">
			<data offset="5420" size="16" shape="1,8,1,1" element_type="f16"/>
			<output>
				<port id="0" precision="FP16">
					<dim>1</dim>
					<dim>8</dim>
					<dim>1</dim>
					<dim>1</dim>
				</port>
			</output>
		</layer>
		<layer id="280" name="L0034_Conv2d_BN/Dims6395117015387/restored_convert" type="Convert" version="opset1">
			<data destination_type="f32"/>
			<rt_info>
				<attribute name="decompression" version="0"/>
			</rt_info>
			<input>
				<port id="0">
					<dim>1</dim>
					<dim>8</dim>
					<dim>1</dim>
					<dim>1</dim>
				</port>
			</input>
			<output>
				<port id="1" precision="FP32">
					<dim>1</dim>
					<dim>8</dim>
					<dim>1</dim>
					<dim>1</dim>
				</port>
			</output>
		</layer>
		<layer id="281" name="L0034_Conv2d_BN" type="Add" version="opset1">
			<data auto_broadcast="numpy"/>
			<input>
				<port id="0">
					<dim>1</dim>
					<dim>8</dim>
					<dim>256</dim>
					<dim>448</dim>
				</port>
				<port id="1">
					<dim>1</dim>
					<dim>8</dim>
					<dim>1</dim>
					<dim>1</dim>
				</port>
			</input>
			<output>
				<port id="2" precision="FP32" names="L0034_Conv2d_BN">
					<dim>1</dim>
					<dim>8</dim>
					<dim>256</dim>
					<dim>448</dim>
				</port>
			</output>
		</layer>
		<layer id="282" name="L0035_ReLU" type="ReLU" version="opset1">
			<input>
				<port id="0">
					<dim>1</dim>
					<dim>8</dim>
					<dim>256</dim>
					<dim>448</dim>
				</port>
			</input>
			<output>
				<port id="1" precision="FP32" names="L0035_ReLU">
					<dim>1</dim>
					<dim>8</dim>
					<dim>256</dim>
					<dim>448</dim>
				</port>
			</output>
		</layer>
		<layer id="283" name="L0036_Conv2d_BN/WithoutBiases/fq_input_0" type="FakeQuantize" version="opset1">
			<data levels="256" auto_broadcast="numpy"/>
			<input>
				<port id="0">
					<dim>1</dim>
					<dim>8</dim>
					<dim>256</dim>
					<dim>448</dim>
				</port>
				<port id="1"/>
				<port id="2"/>
				<port id="3"/>
				<port id="4"/>
			</input>
			<output>
				<port id="5" precision="FP32">
					<dim>1</dim>
					<dim>8</dim>
					<dim>256</dim>
					<dim>448</dim>
				</port>
			</output>
		</layer>
		<layer id="284" name="L0036_Conv2d_BN/WithoutBiases/fq_weights_1/scale1919731138" type="Const" version="opset1">
			<data offset="5436" size="128" shape="32,1,1,1" element_type="f32"/>
			<output>
				<port id="0" precision="FP32">
					<dim>32</dim>
					<dim>1</dim>
					<dim>1</dim>
					<dim>1</dim>
				</port>
			</output>
		</layer>
		<layer id="285" name="365117415388/restored_convert/quantized1918929839" type="Const" version="opset1">
			<data offset="5564" size="256" shape="32,8,1,1" element_type="i8"/>
			<output>
				<port id="0" precision="I8">
					<dim>32</dim>
					<dim>8</dim>
					<dim>1</dim>
					<dim>1</dim>
				</port>
			</output>
		</layer>
		<layer id="286" name="365117415388/restored_convert/quantized/to_f32" type="Convert" version="opset1">
			<data destination_type="f32"/>
			<input>
				<port id="0">
					<dim>32</dim>
					<dim>8</dim>
					<dim>1</dim>
					<dim>1</dim>
				</port>
			</input>
			<output>
				<port id="1" precision="FP32">
					<dim>32</dim>
					<dim>8</dim>
					<dim>1</dim>
					<dim>1</dim>
				</port>
			</output>
		</layer>
		<layer id="287" name="L0036_Conv2d_BN/WithoutBiases/fq_weights_1/mulpiply_by_scale" type="Multiply" version="opset1">
			<data auto_broadcast="numpy"/>
			<input>
				<port id="0">
					<dim>32</dim>
					<dim>8</dim>
					<dim>1</dim>
					<dim>1</dim>
				</port>
				<port id="1">
					<dim>32</dim>
					<dim>1</dim>
					<dim>1</dim>
					<dim>1</dim>
				</port>
			</input>
			<output>
				<port id="2" precision="FP32">
					<dim>32</dim>
					<dim>8</dim>
					<dim>1</dim>
					<dim>1</dim>
				</port>
			</output>
		</layer>
		<layer id="288" name="L0036_Conv2d_BN/WithoutBiases" type="Convolution" version="opset1">
			<data auto_pad="explicit" strides="1,1" dilations="1,1" pads_begin="0,0" pads_end="0,0"/>
			<input>
				<port id="0">
					<dim>1</dim>
					<dim>8</dim>
					<dim>256</dim>
					<dim>448</dim>
				</port>
				<port id="1">
					<dim>32</dim>
					<dim>8</dim>
					<dim>1</dim>
					<dim>1</dim>
				</port>
			</input>
			<output>
				<port id="2" precision="FP32">
					<dim>1</dim>
					<dim>32</dim>
					<dim>256</dim>
					<dim>448</dim>
				</port>
			</output>
		</layer>
		<layer id="289" name="L0036_Conv2d_BN/Dims5711117729143" type="Const" version="opset1">
			<data offset="5820" size="64" shape="1,32,1,1" element_type="f16"/>
			<output>
				<port id="0" precision="FP16">
					<dim>1</dim>
					<dim>32</dim>
					<dim>1</dim>
					<dim>1</dim>
				</port>
			</output>
		</layer>
		<layer id="290" name="L0036_Conv2d_BN/Dims5711117715389/restored_convert" type="Convert" version="opset1">
			<data destination_type="f32"/>
			<rt_info>
				<attribute name="decompression" version="0"/>
			</rt_info>
			<input>
				<port id="0">
					<dim>1</dim>
					<dim>32</dim>
					<dim>1</dim>
					<dim>1</dim>
				</port>
			</input>
			<output>
				<port id="1" precision="FP32">
					<dim>1</dim>
					<dim>32</dim>
					<dim>1</dim>
					<dim>1</dim>
				</port>
			</output>
		</layer>
		<layer id="291" name="L0036_Conv2d_BN" type="Add" version="opset1">
			<data auto_broadcast="numpy"/>
			<input>
				<port id="0">
					<dim>1</dim>
					<dim>32</dim>
					<dim>256</dim>
					<dim>448</dim>
				</port>
				<port id="1">
					<dim>1</dim>
					<dim>32</dim>
					<dim>1</dim>
					<dim>1</dim>
				</port>
			</input>
			<output>
				<port id="2" precision="FP32" names="L0036_Conv2d_BN">
					<dim>1</dim>
					<dim>32</dim>
					<dim>256</dim>
					<dim>448</dim>
				</port>
			</output>
		</layer>
		<layer id="292" name="L0037_AddBackward1/fq_input_0" type="FakeQuantize" version="opset1">
			<data levels="256" auto_broadcast="numpy"/>
			<input>
				<port id="0">
					<dim>1</dim>
					<dim>32</dim>
					<dim>256</dim>
					<dim>448</dim>
				</port>
				<port id="1"/>
				<port id="2"/>
				<port id="3"/>
				<port id="4"/>
			</input>
			<output>
				<port id="5" precision="FP32">
					<dim>1</dim>
					<dim>32</dim>
					<dim>256</dim>
					<dim>448</dim>
				</port>
			</output>
		</layer>
		<layer id="293" name="L0037_AddBackward1" type="Add" version="opset1">
			<data auto_broadcast="numpy"/>
			<input>
				<port id="0">
					<dim>1</dim>
					<dim>32</dim>
					<dim>256</dim>
					<dim>448</dim>
				</port>
				<port id="1">
					<dim>1</dim>
					<dim>32</dim>
					<dim>256</dim>
					<dim>448</dim>
				</port>
			</input>
			<output>
				<port id="2" precision="FP32" names="L0037_AddBackward1">
					<dim>1</dim>
					<dim>32</dim>
					<dim>256</dim>
					<dim>448</dim>
				</port>
			</output>
		</layer>
		<layer id="294" name="L0038_ReLU" type="ReLU" version="opset1">
			<input>
				<port id="0">
					<dim>1</dim>
					<dim>32</dim>
					<dim>256</dim>
					<dim>448</dim>
				</port>
			</input>
			<output>
				<port id="1" precision="FP32" names="L0038_ReLU">
					<dim>1</dim>
					<dim>32</dim>
					<dim>256</dim>
					<dim>448</dim>
				</port>
			</output>
		</layer>
		<layer id="295" name="L0039_Conv2d_BN/WithoutBiases/fq_input_0" type="FakeQuantize" version="opset1">
			<data levels="256" auto_broadcast="numpy"/>
			<input>
				<port id="0">
					<dim>1</dim>
					<dim>32</dim>
					<dim>256</dim>
					<dim>448</dim>
				</port>
				<port id="1"/>
				<port id="2"/>
				<port id="3"/>
				<port id="4"/>
			</input>
			<output>
				<port id="5" precision="FP32">
					<dim>1</dim>
					<dim>32</dim>
					<dim>256</dim>
					<dim>448</dim>
				</port>
			</output>
		</layer>
		<layer id="296" name="L0044_MaxPool2d" type="MaxPool" version="opset8">
			<data strides="2,2" kernel="2,2" pads_begin="0,0" pads_end="0,0" rounding_type="ceil" auto_pad="explicit" dilations="1,1" axis="0" index_element_type="i64"/>
			<input>
				<port id="0">
					<dim>1</dim>
					<dim>32</dim>
					<dim>256</dim>
					<dim>448</dim>
				</port>
			</input>
			<output>
				<port id="1" precision="FP32" names="L0044_MaxPool2d">
					<dim>1</dim>
					<dim>32</dim>
					<dim>128</dim>
					<dim>224</dim>
				</port>
				<port id="2" precision="FP32">
					<dim>1</dim>
					<dim>32</dim>
					<dim>128</dim>
					<dim>224</dim>
					<rt_info/>
				</port>
			</output>
		</layer>
		<layer id="298" name="6771677530724" type="Const" version="opset1">
			<data offset="0" size="4" shape="" element_type="f32"/>
			<output>
				<port id="0" precision="FP32"/>
			</output>
		</layer>
		<layer id="299" name="6772677628726" type="Const" version="opset1">
			<data offset="5884" size="4" shape="" element_type="f32"/>
			<output>
				<port id="0" precision="FP32"/>
			</output>
		</layer>
		<layer id="300" name="6773677731009" type="Const" version="opset1">
			<data offset="0" size="4" shape="" element_type="f32"/>
			<output>
				<port id="0" precision="FP32"/>
			</output>
		</layer>
		<layer id="301" name="6774677830007" type="Const" version="opset1">
			<data offset="5884" size="4" shape="" element_type="f32"/>
			<output>
				<port id="0" precision="FP32"/>
			</output>
		</layer>
		<layer id="302" name="5281528531411" type="Const" version="opset1">
			<data offset="5888" size="4" shape="" element_type="f32"/>
			<output>
				<port id="0" precision="FP32"/>
			</output>
		</layer>
		<layer id="303" name="5282528631084" type="Const" version="opset1">
			<data offset="5892" size="4" shape="" element_type="f32"/>
			<output>
				<port id="0" precision="FP32"/>
			</output>
		</layer>
		<layer id="304" name="5283528731633" type="Const" version="opset1">
			<data offset="5888" size="4" shape="" element_type="f32"/>
			<output>
				<port id="0" precision="FP32"/>
			</output>
		</layer>
		<layer id="305" name="5284528830772" type="Const" version="opset1">
			<data offset="5892" size="4" shape="" element_type="f32"/>
			<output>
				<port id="0" precision="FP32"/>
			</output>
		</layer>
		<layer id="306" name="5241524532134" type="Const" version="opset1">
			<data offset="0" size="4" shape="" element_type="f32"/>
			<output>
				<port id="0" precision="FP32"/>
			</output>
		</layer>
		<layer id="307" name="5242524631267" type="Const" version="opset1">
			<data offset="5896" size="4" shape="" element_type="f32"/>
			<output>
				<port id="0" precision="FP32"/>
			</output>
		</layer>
		<layer id="308" name="5243524729743" type="Const" version="opset1">
			<data offset="0" size="4" shape="" element_type="f32"/>
			<output>
				<port id="0" precision="FP32"/>
			</output>
		</layer>
		<layer id="309" name="5244524830295" type="Const" version="opset1">
			<data offset="5896" size="4" shape="" element_type="f32"/>
			<output>
				<port id="0" precision="FP32"/>
			</output>
		</layer>
		<layer id="310" name="6021602531975" type="Const" version="opset1">
			<data offset="5900" size="64" shape="1,16,1,1" element_type="f32"/>
			<output>
				<port id="0" precision="FP32">
					<dim>1</dim>
					<dim>16</dim>
					<dim>1</dim>
					<dim>1</dim>
				</port>
			</output>
		</layer>
		<layer id="311" name="6022602631087" type="Const" version="opset1">
			<data offset="5964" size="64" shape="1,16,1,1" element_type="f32"/>
			<output>
				<port id="0" precision="FP32">
					<dim>1</dim>
					<dim>16</dim>
					<dim>1</dim>
					<dim>1</dim>
				</port>
			</output>
		</layer>
		<layer id="312" name="6023602728984" type="Const" version="opset1">
			<data offset="5900" size="64" shape="1,16,1,1" element_type="f32"/>
			<output>
				<port id="0" precision="FP32">
					<dim>1</dim>
					<dim>16</dim>
					<dim>1</dim>
					<dim>1</dim>
				</port>
			</output>
		</layer>
		<layer id="313" name="6024602831945" type="Const" version="opset1">
			<data offset="5964" size="64" shape="1,16,1,1" element_type="f32"/>
			<output>
				<port id="0" precision="FP32">
					<dim>1</dim>
					<dim>16</dim>
					<dim>1</dim>
					<dim>1</dim>
				</port>
			</output>
		</layer>
		<layer id="314" name="6911691529623" type="Const" version="opset1">
			<data offset="0" size="4" shape="" element_type="f32"/>
			<output>
				<port id="0" precision="FP32"/>
			</output>
		</layer>
		<layer id="315" name="6912691630745" type="Const" version="opset1">
			<data offset="6028" size="4" shape="" element_type="f32"/>
			<output>
				<port id="0" precision="FP32"/>
			</output>
		</layer>
		<layer id="316" name="6913691731264" type="Const" version="opset1">
			<data offset="0" size="4" shape="" element_type="f32"/>
			<output>
				<port id="0" precision="FP32"/>
			</output>
		</layer>
		<layer id="317" name="6914691831183" type="Const" version="opset1">
			<data offset="6028" size="4" shape="" element_type="f32"/>
			<output>
				<port id="0" precision="FP32"/>
			</output>
		</layer>
		<layer id="318" name="5801580530298" type="Const" version="opset1">
			<data offset="6032" size="4" shape="" element_type="f32"/>
			<output>
				<port id="0" precision="FP32"/>
			</output>
		</layer>
		<layer id="319" name="5802580630061" type="Const" version="opset1">
			<data offset="6036" size="4" shape="" element_type="f32"/>
			<output>
				<port id="0" precision="FP32"/>
			</output>
		</layer>
		<layer id="320" name="5803580728888" type="Const" version="opset1">
			<data offset="6032" size="4" shape="" element_type="f32"/>
			<output>
				<port id="0" precision="FP32"/>
			</output>
		</layer>
		<layer id="321" name="5804580828558" type="Const" version="opset1">
			<data offset="6036" size="4" shape="" element_type="f32"/>
			<output>
				<port id="0" precision="FP32"/>
			</output>
		</layer>
		<layer id="322" name="5131513532215" type="Const" version="opset1">
			<data offset="0" size="4" shape="" element_type="f32"/>
			<output>
				<port id="0" precision="FP32"/>
			</output>
		</layer>
		<layer id="323" name="5132513629305" type="Const" version="opset1">
			<data offset="6040" size="4" shape="" element_type="f32"/>
			<output>
				<port id="0" precision="FP32"/>
			</output>
		</layer>
		<layer id="324" name="5133513730700" type="Const" version="opset1">
			<data offset="0" size="4" shape="" element_type="f32"/>
			<output>
				<port id="0" precision="FP32"/>
			</output>
		</layer>
		<layer id="325" name="5134513831402" type="Const" version="opset1">
			<data offset="6040" size="4" shape="" element_type="f32"/>
			<output>
				<port id="0" precision="FP32"/>
			</output>
		</layer>
		<layer id="326" name="3831383530685" type="Const" version="opset1">
			<data offset="5900" size="64" shape="1,16,1,1" element_type="f32"/>
			<output>
				<port id="0" precision="FP32">
					<dim>1</dim>
					<dim>16</dim>
					<dim>1</dim>
					<dim>1</dim>
				</port>
			</output>
		</layer>
		<layer id="327" name="3832383629068" type="Const" version="opset1">
			<data offset="6044" size="64" shape="1,16,1,1" element_type="f32"/>
			<output>
				<port id="0" precision="FP32">
					<dim>1</dim>
					<dim>16</dim>
					<dim>1</dim>
					<dim>1</dim>
				</port>
			</output>
		</layer>
		<layer id="328" name="3833383732137" type="Const" version="opset1">
			<data offset="5900" size="64" shape="1,16,1,1" element_type="f32"/>
			<output>
				<port id="0" precision="FP32">
					<dim>1</dim>
					<dim>16</dim>
					<dim>1</dim>
					<dim>1</dim>
				</port>
			</output>
		</layer>
		<layer id="329" name="3834383831639" type="Const" version="opset1">
			<data offset="6044" size="64" shape="1,16,1,1" element_type="f32"/>
			<output>
				<port id="0" precision="FP32">
					<dim>1</dim>
					<dim>16</dim>
					<dim>1</dim>
					<dim>1</dim>
				</port>
			</output>
		</layer>
		<layer id="330" name="5601560529482" type="Const" version="opset1">
			<data offset="0" size="4" shape="" element_type="f32"/>
			<output>
				<port id="0" precision="FP32"/>
			</output>
		</layer>
		<layer id="331" name="5602560631180" type="Const" version="opset1">
			<data offset="6108" size="4" shape="" element_type="f32"/>
			<output>
				<port id="0" precision="FP32"/>
			</output>
		</layer>
		<layer id="332" name="5603560728999" type="Const" version="opset1">
			<data offset="0" size="4" shape="" element_type="f32"/>
			<output>
				<port id="0" precision="FP32"/>
			</output>
		</layer>
		<layer id="333" name="5604560828540" type="Const" version="opset1">
			<data offset="6108" size="4" shape="" element_type="f32"/>
			<output>
				<port id="0" precision="FP32"/>
			</output>
		</layer>
		<layer id="334" name="4471447530814" type="Const" version="opset1">
			<data offset="6112" size="4" shape="" element_type="f32"/>
			<output>
				<port id="0" precision="FP32"/>
			</output>
		</layer>
		<layer id="335" name="4472447630013" type="Const" version="opset1">
			<data offset="6116" size="4" shape="" element_type="f32"/>
			<output>
				<port id="0" precision="FP32"/>
			</output>
		</layer>
		<layer id="336" name="4473447729806" type="Const" version="opset1">
			<data offset="6112" size="4" shape="" element_type="f32"/>
			<output>
				<port id="0" precision="FP32"/>
			</output>
		</layer>
		<layer id="337" name="4474447831039" type="Const" version="opset1">
			<data offset="6116" size="4" shape="" element_type="f32"/>
			<output>
				<port id="0" precision="FP32"/>
			</output>
		</layer>
		<layer id="338" name="6791679532005" type="Const" version="opset1">
			<data offset="0" size="4" shape="" element_type="f32"/>
			<output>
				<port id="0" precision="FP32"/>
			</output>
		</layer>
		<layer id="339" name="6792679628561" type="Const" version="opset1">
			<data offset="6120" size="4" shape="" element_type="f32"/>
			<output>
				<port id="0" precision="FP32"/>
			</output>
		</layer>
		<layer id="340" name="6793679730943" type="Const" version="opset1">
			<data offset="0" size="4" shape="" element_type="f32"/>
			<output>
				<port id="0" precision="FP32"/>
			</output>
		</layer>
		<layer id="341" name="6794679829842" type="Const" version="opset1">
			<data offset="6120" size="4" shape="" element_type="f32"/>
			<output>
				<port id="0" precision="FP32"/>
			</output>
		</layer>
		<layer id="342" name="5681568528813" type="Const" version="opset1">
			<data offset="5900" size="64" shape="1,16,1,1" element_type="f32"/>
			<output>
				<port id="0" precision="FP32">
					<dim>1</dim>
					<dim>16</dim>
					<dim>1</dim>
					<dim>1</dim>
				</port>
			</output>
		</layer>
		<layer id="343" name="5682568631168" type="Const" version="opset1">
			<data offset="6124" size="64" shape="1,16,1,1" element_type="f32"/>
			<output>
				<port id="0" precision="FP32">
					<dim>1</dim>
					<dim>16</dim>
					<dim>1</dim>
					<dim>1</dim>
				</port>
			</output>
		</layer>
		<layer id="344" name="5683568729065" type="Const" version="opset1">
			<data offset="5900" size="64" shape="1,16,1,1" element_type="f32"/>
			<output>
				<port id="0" precision="FP32">
					<dim>1</dim>
					<dim>16</dim>
					<dim>1</dim>
					<dim>1</dim>
				</port>
			</output>
		</layer>
		<layer id="345" name="5684568831471" type="Const" version="opset1">
			<data offset="6124" size="64" shape="1,16,1,1" element_type="f32"/>
			<output>
				<port id="0" precision="FP32">
					<dim>1</dim>
					<dim>16</dim>
					<dim>1</dim>
					<dim>1</dim>
				</port>
			</output>
		</layer>
		<layer id="346" name="4191419530361" type="Const" version="opset1">
			<data offset="0" size="4" shape="" element_type="f32"/>
			<output>
				<port id="0" precision="FP32"/>
			</output>
		</layer>
		<layer id="347" name="4192419628732" type="Const" version="opset1">
			<data offset="6188" size="4" shape="" element_type="f32"/>
			<output>
				<port id="0" precision="FP32"/>
			</output>
		</layer>
		<layer id="348" name="4193419731468" type="Const" version="opset1">
			<data offset="0" size="4" shape="" element_type="f32"/>
			<output>
				<port id="0" precision="FP32"/>
			</output>
		</layer>
		<layer id="349" name="4194419831120" type="Const" version="opset1">
			<data offset="6188" size="4" shape="" element_type="f32"/>
			<output>
				<port id="0" precision="FP32"/>
			</output>
		</layer>
		<layer id="350" name="6161616530994" type="Const" version="opset1">
			<data offset="6192" size="4" shape="" element_type="f32"/>
			<output>
				<port id="0" precision="FP32"/>
			</output>
		</layer>
		<layer id="351" name="6162616629683" type="Const" version="opset1">
			<data offset="6196" size="4" shape="" element_type="f32"/>
			<output>
				<port id="0" precision="FP32"/>
			</output>
		</layer>
		<layer id="352" name="6163616730208" type="Const" version="opset1">
			<data offset="6192" size="4" shape="" element_type="f32"/>
			<output>
				<port id="0" precision="FP32"/>
			</output>
		</layer>
		<layer id="353" name="6164616831369" type="Const" version="opset1">
			<data offset="6196" size="4" shape="" element_type="f32"/>
			<output>
				<port id="0" precision="FP32"/>
			</output>
		</layer>
		<layer id="354" name="5011501528960" type="Const" version="opset1">
			<data offset="0" size="4" shape="" element_type="f32"/>
			<output>
				<port id="0" precision="FP32"/>
			</output>
		</layer>
		<layer id="355" name="5012501631600" type="Const" version="opset1">
			<data offset="6200" size="4" shape="" element_type="f32"/>
			<output>
				<port id="0" precision="FP32"/>
			</output>
		</layer>
		<layer id="356" name="5013501728555" type="Const" version="opset1">
			<data offset="0" size="4" shape="" element_type="f32"/>
			<output>
				<port id="0" precision="FP32"/>
			</output>
		</layer>
		<layer id="357" name="5014501830910" type="Const" version="opset1">
			<data offset="6200" size="4" shape="" element_type="f32"/>
			<output>
				<port id="0" precision="FP32"/>
			</output>
		</layer>
		<layer id="358" name="3621362531399" type="Const" version="opset1">
			<data offset="5900" size="64" shape="1,16,1,1" element_type="f32"/>
			<output>
				<port id="0" precision="FP32">
					<dim>1</dim>
					<dim>16</dim>
					<dim>1</dim>
					<dim>1</dim>
				</port>
			</output>
		</layer>
		<layer id="359" name="3622362630658" type="Const" version="opset1">
			<data offset="6204" size="64" shape="1,16,1,1" element_type="f32"/>
			<output>
				<port id="0" precision="FP32">
					<dim>1</dim>
					<dim>16</dim>
					<dim>1</dim>
					<dim>1</dim>
				</port>
			</output>
		</layer>
		<layer id="360" name="3623362728885" type="Const" version="opset1">
			<data offset="5900" size="64" shape="1,16,1,1" element_type="f32"/>
			<output>
				<port id="0" precision="FP32">
					<dim>1</dim>
					<dim>16</dim>
					<dim>1</dim>
					<dim>1</dim>
				</port>
			</output>
		</layer>
		<layer id="361" name="3624362830847" type="Const" version="opset1">
			<data offset="6204" size="64" shape="1,16,1,1" element_type="f32"/>
			<output>
				<port id="0" precision="FP32">
					<dim>1</dim>
					<dim>16</dim>
					<dim>1</dim>
					<dim>1</dim>
				</port>
			</output>
		</layer>
		<layer id="362" name="3541354529089" type="Const" version="opset1">
			<data offset="0" size="4" shape="" element_type="f32"/>
			<output>
				<port id="0" precision="FP32"/>
			</output>
		</layer>
		<layer id="363" name="3542354630010" type="Const" version="opset1">
			<data offset="6268" size="4" shape="" element_type="f32"/>
			<output>
				<port id="0" precision="FP32"/>
			</output>
		</layer>
		<layer id="364" name="3543354728636" type="Const" version="opset1">
			<data offset="0" size="4" shape="" element_type="f32"/>
			<output>
				<port id="0" precision="FP32"/>
			</output>
		</layer>
		<layer id="365" name="3544354831144" type="Const" version="opset1">
			<data offset="6268" size="4" shape="" element_type="f32"/>
			<output>
				<port id="0" precision="FP32"/>
			</output>
		</layer>
		<layer id="366" name="4221422531624" type="Const" version="opset1">
			<data offset="6272" size="4" shape="" element_type="f32"/>
			<output>
				<port id="0" precision="FP32"/>
			</output>
		</layer>
		<layer id="367" name="4222422630163" type="Const" version="opset1">
			<data offset="6276" size="4" shape="" element_type="f32"/>
			<output>
				<port id="0" precision="FP32"/>
			</output>
		</layer>
		<layer id="368" name="4223422730757" type="Const" version="opset1">
			<data offset="6272" size="4" shape="" element_type="f32"/>
			<output>
				<port id="0" precision="FP32"/>
			</output>
		</layer>
		<layer id="369" name="4224422831033" type="Const" version="opset1">
			<data offset="6276" size="4" shape="" element_type="f32"/>
			<output>
				<port id="0" precision="FP32"/>
			</output>
		</layer>
		<layer id="370" name="4791479528570" type="Const" version="opset1">
			<data offset="0" size="4" shape="" element_type="f32"/>
			<output>
				<port id="0" precision="FP32"/>
			</output>
		</layer>
		<layer id="371" name="4792479632131" type="Const" version="opset1">
			<data offset="6280" size="4" shape="" element_type="f32"/>
			<output>
				<port id="0" precision="FP32"/>
			</output>
		</layer>
		<layer id="372" name="4793479730415" type="Const" version="opset1">
			<data offset="0" size="4" shape="" element_type="f32"/>
			<output>
				<port id="0" precision="FP32"/>
			</output>
		</layer>
		<layer id="373" name="4794479829449" type="Const" version="opset1">
			<data offset="6280" size="4" shape="" element_type="f32"/>
			<output>
				<port id="0" precision="FP32"/>
			</output>
		</layer>
		<layer id="374" name="5221522530079" type="Const" version="opset1">
			<data offset="5900" size="64" shape="1,16,1,1" element_type="f32"/>
			<output>
				<port id="0" precision="FP32">
					<dim>1</dim>
					<dim>16</dim>
					<dim>1</dim>
					<dim>1</dim>
				</port>
			</output>
		</layer>
		<layer id="375" name="5222522629326" type="Const" version="opset1">
			<data offset="6284" size="64" shape="1,16,1,1" element_type="f32"/>
			<output>
				<port id="0" precision="FP32">
					<dim>1</dim>
					<dim>16</dim>
					<dim>1</dim>
					<dim>1</dim>
				</port>
			</output>
		</layer>
		<layer id="376" name="5223522732197" type="Const" version="opset1">
			<data offset="5900" size="64" shape="1,16,1,1" element_type="f32"/>
			<output>
				<port id="0" precision="FP32">
					<dim>1</dim>
					<dim>16</dim>
					<dim>1</dim>
					<dim>1</dim>
				</port>
			</output>
		</layer>
		<layer id="377" name="5224522828744" type="Const" version="opset1">
			<data offset="6284" size="64" shape="1,16,1,1" element_type="f32"/>
			<output>
				<port id="0" precision="FP32">
					<dim>1</dim>
					<dim>16</dim>
					<dim>1</dim>
					<dim>1</dim>
				</port>
			</output>
		</layer>
		<layer id="378" name="5981598529581" type="Const" version="opset1">
			<data offset="0" size="4" shape="" element_type="f32"/>
			<output>
				<port id="0" precision="FP32"/>
			</output>
		</layer>
		<layer id="379" name="5982598630625" type="Const" version="opset1">
			<data offset="6348" size="4" shape="" element_type="f32"/>
			<output>
				<port id="0" precision="FP32"/>
			</output>
		</layer>
		<layer id="380" name="5983598729404" type="Const" version="opset1">
			<data offset="0" size="4" shape="" element_type="f32"/>
			<output>
				<port id="0" precision="FP32"/>
			</output>
		</layer>
		<layer id="381" name="5984598831606" type="Const" version="opset1">
			<data offset="6348" size="4" shape="" element_type="f32"/>
			<output>
				<port id="0" precision="FP32"/>
			</output>
		</layer>
		<layer id="382" name="6361636529206" type="Const" version="opset1">
			<data offset="6352" size="4" shape="" element_type="f32"/>
			<output>
				<port id="0" precision="FP32"/>
			</output>
		</layer>
		<layer id="383" name="6362636630472" type="Const" version="opset1">
			<data offset="6356" size="4" shape="" element_type="f32"/>
			<output>
				<port id="0" precision="FP32"/>
			</output>
		</layer>
		<layer id="384" name="6363636731852" type="Const" version="opset1">
			<data offset="6352" size="4" shape="" element_type="f32"/>
			<output>
				<port id="0" precision="FP32"/>
			</output>
		</layer>
		<layer id="385" name="6364636828648" type="Const" version="opset1">
			<data offset="6356" size="4" shape="" element_type="f32"/>
			<output>
				<port id="0" precision="FP32"/>
			</output>
		</layer>
		<layer id="386" name="4991499530670" type="Const" version="opset1">
			<data offset="0" size="4" shape="" element_type="f32"/>
			<output>
				<port id="0" precision="FP32"/>
			</output>
		</layer>
		<layer id="387" name="4992499630454" type="Const" version="opset1">
			<data offset="6360" size="4" shape="" element_type="f32"/>
			<output>
				<port id="0" precision="FP32"/>
			</output>
		</layer>
		<layer id="388" name="4993499728894" type="Const" version="opset1">
			<data offset="0" size="4" shape="" element_type="f32"/>
			<output>
				<port id="0" precision="FP32"/>
			</output>
		</layer>
		<layer id="389" name="4994499828564" type="Const" version="opset1">
			<data offset="6360" size="4" shape="" element_type="f32"/>
			<output>
				<port id="0" precision="FP32"/>
			</output>
		</layer>
		<layer id="390" name="6181618529791" type="Const" version="opset1">
			<data offset="5900" size="64" shape="1,16,1,1" element_type="f32"/>
			<output>
				<port id="0" precision="FP32">
					<dim>1</dim>
					<dim>16</dim>
					<dim>1</dim>
					<dim>1</dim>
				</port>
			</output>
		</layer>
		<layer id="391" name="6182618630064" type="Const" version="opset1">
			<data offset="6364" size="64" shape="1,16,1,1" element_type="f32"/>
			<output>
				<port id="0" precision="FP32">
					<dim>1</dim>
					<dim>16</dim>
					<dim>1</dim>
					<dim>1</dim>
				</port>
			</output>
		</layer>
		<layer id="392" name="6183618730799" type="Const" version="opset1">
			<data offset="5900" size="64" shape="1,16,1,1" element_type="f32"/>
			<output>
				<port id="0" precision="FP32">
					<dim>1</dim>
					<dim>16</dim>
					<dim>1</dim>
					<dim>1</dim>
				</port>
			</output>
		</layer>
		<layer id="393" name="6184618829959" type="Const" version="opset1">
			<data offset="6364" size="64" shape="1,16,1,1" element_type="f32"/>
			<output>
				<port id="0" precision="FP32">
					<dim>1</dim>
					<dim>16</dim>
					<dim>1</dim>
					<dim>1</dim>
				</port>
			</output>
		</layer>
		<layer id="394" name="4711471530181" type="Const" version="opset1">
			<data offset="0" size="4" shape="" element_type="f32"/>
			<output>
				<port id="0" precision="FP32"/>
			</output>
		</layer>
		<layer id="395" name="4712471628612" type="Const" version="opset1">
			<data offset="6428" size="4" shape="" element_type="f32"/>
			<output>
				<port id="0" precision="FP32"/>
			</output>
		</layer>
		<layer id="396" name="4713471729761" type="Const" version="opset1">
			<data offset="0" size="4" shape="" element_type="f32"/>
			<output>
				<port id="0" precision="FP32"/>
			</output>
		</layer>
		<layer id="397" name="4714471831453" type="Const" version="opset1">
			<data offset="6428" size="4" shape="" element_type="f32"/>
			<output>
				<port id="0" precision="FP32"/>
			</output>
		</layer>
		<layer id="398" name="6851685530328" type="Const" version="opset1">
			<data offset="6432" size="4" shape="" element_type="f32"/>
			<output>
				<port id="0" precision="FP32"/>
			</output>
		</layer>
		<layer id="399" name="6852685631873" type="Const" version="opset1">
			<data offset="6436" size="4" shape="" element_type="f32"/>
			<output>
				<port id="0" precision="FP32"/>
			</output>
		</layer>
		<layer id="400" name="6853685731537" type="Const" version="opset1">
			<data offset="6432" size="4" shape="" element_type="f32"/>
			<output>
				<port id="0" precision="FP32"/>
			</output>
		</layer>
		<layer id="401" name="6854685831054" type="Const" version="opset1">
			<data offset="6436" size="4" shape="" element_type="f32"/>
			<output>
				<port id="0" precision="FP32"/>
			</output>
		</layer>
		<layer id="402" name="6141614528747" type="Const" version="opset1">
			<data offset="0" size="4" shape="" element_type="f32"/>
			<output>
				<port id="0" precision="FP32"/>
			</output>
		</layer>
		<layer id="403" name="6142614631954" type="Const" version="opset1">
			<data offset="6440" size="4" shape="" element_type="f32"/>
			<output>
				<port id="0" precision="FP32"/>
			</output>
		</layer>
		<layer id="404" name="6143614731951" type="Const" version="opset1">
			<data offset="0" size="4" shape="" element_type="f32"/>
			<output>
				<port id="0" precision="FP32"/>
			</output>
		</layer>
		<layer id="405" name="6144614829545" type="Const" version="opset1">
			<data offset="6440" size="4" shape="" element_type="f32"/>
			<output>
				<port id="0" precision="FP32"/>
			</output>
		</layer>
		<layer id="406" name="3931393532023" type="Const" version="opset1">
			<data offset="5900" size="64" shape="1,16,1,1" element_type="f32"/>
			<output>
				<port id="0" precision="FP32">
					<dim>1</dim>
					<dim>16</dim>
					<dim>1</dim>
					<dim>1</dim>
				</port>
			</output>
		</layer>
		<layer id="407" name="3932393630373" type="Const" version="opset1">
			<data offset="6444" size="64" shape="1,16,1,1" element_type="f32"/>
			<output>
				<port id="0" precision="FP32">
					<dim>1</dim>
					<dim>16</dim>
					<dim>1</dim>
					<dim>1</dim>
				</port>
			</output>
		</layer>
		<layer id="408" name="3933393732083" type="Const" version="opset1">
			<data offset="5900" size="64" shape="1,16,1,1" element_type="f32"/>
			<output>
				<port id="0" precision="FP32">
					<dim>1</dim>
					<dim>16</dim>
					<dim>1</dim>
					<dim>1</dim>
				</port>
			</output>
		</layer>
		<layer id="409" name="3934393829968" type="Const" version="opset1">
			<data offset="6444" size="64" shape="1,16,1,1" element_type="f32"/>
			<output>
				<port id="0" precision="FP32">
					<dim>1</dim>
					<dim>16</dim>
					<dim>1</dim>
					<dim>1</dim>
				</port>
			</output>
		</layer>
		<layer id="410" name="5721572529014" type="Const" version="opset1">
			<data offset="0" size="4" shape="" element_type="f32"/>
			<output>
				<port id="0" precision="FP32"/>
			</output>
		</layer>
		<layer id="411" name="5722572630100" type="Const" version="opset1">
			<data offset="6508" size="4" shape="" element_type="f32"/>
			<output>
				<port id="0" precision="FP32"/>
			</output>
		</layer>
		<layer id="412" name="5723572731804" type="Const" version="opset1">
			<data offset="0" size="4" shape="" element_type="f32"/>
			<output>
				<port id="0" precision="FP32"/>
			</output>
		</layer>
		<layer id="413" name="5724572831111" type="Const" version="opset1">
			<data offset="6508" size="4" shape="" element_type="f32"/>
			<output>
				<port id="0" precision="FP32"/>
			</output>
		</layer>
		<layer id="414" name="5201520531162" type="Const" version="opset1">
			<data offset="6512" size="4" shape="" element_type="f32"/>
			<output>
				<port id="0" precision="FP32"/>
			</output>
		</layer>
		<layer id="415" name="5202520631024" type="Const" version="opset1">
			<data offset="6516" size="4" shape="" element_type="f32"/>
			<output>
				<port id="0" precision="FP32"/>
			</output>
		</layer>
		<layer id="416" name="5203520730673" type="Const" version="opset1">
			<data offset="6512" size="4" shape="" element_type="f32"/>
			<output>
				<port id="0" precision="FP32"/>
			</output>
		</layer>
		<layer id="417" name="5204520829212" type="Const" version="opset1">
			<data offset="6516" size="4" shape="" element_type="f32"/>
			<output>
				<port id="0" precision="FP32"/>
			</output>
		</layer>
		<layer id="418" name="4041404531330" type="Const" version="opset1">
			<data offset="0" size="4" shape="" element_type="f32"/>
			<output>
				<port id="0" precision="FP32"/>
			</output>
		</layer>
		<layer id="419" name="4042404629863" type="Const" version="opset1">
			<data offset="6520" size="4" shape="" element_type="f32"/>
			<output>
				<port id="0" precision="FP32"/>
			</output>
		</layer>
		<layer id="420" name="4043404729455" type="Const" version="opset1">
			<data offset="0" size="4" shape="" element_type="f32"/>
			<output>
				<port id="0" precision="FP32"/>
			</output>
		</layer>
		<layer id="421" name="4044404829797" type="Const" version="opset1">
			<data offset="6520" size="4" shape="" element_type="f32"/>
			<output>
				<port id="0" precision="FP32"/>
			</output>
		</layer>
		<layer id="422" name="5741574529905" type="Const" version="opset1">
			<data offset="5900" size="64" shape="1,16,1,1" element_type="f32"/>
			<output>
				<port id="0" precision="FP32">
					<dim>1</dim>
					<dim>16</dim>
					<dim>1</dim>
					<dim>1</dim>
				</port>
			</output>
		</layer>
		<layer id="423" name="5742574630913" type="Const" version="opset1">
			<data offset="6524" size="64" shape="1,16,1,1" element_type="f32"/>
			<output>
				<port id="0" precision="FP32">
					<dim>1</dim>
					<dim>16</dim>
					<dim>1</dim>
					<dim>1</dim>
				</port>
			</output>
		</layer>
		<layer id="424" name="5743574732050" type="Const" version="opset1">
			<data offset="5900" size="64" shape="1,16,1,1" element_type="f32"/>
			<output>
				<port id="0" precision="FP32">
					<dim>1</dim>
					<dim>16</dim>
					<dim>1</dim>
					<dim>1</dim>
				</port>
			</output>
		</layer>
		<layer id="425" name="5744574830265" type="Const" version="opset1">
			<data offset="6524" size="64" shape="1,16,1,1" element_type="f32"/>
			<output>
				<port id="0" precision="FP32">
					<dim>1</dim>
					<dim>16</dim>
					<dim>1</dim>
					<dim>1</dim>
				</port>
			</output>
		</layer>
		<layer id="426" name="4281428531648" type="Const" version="opset1">
			<data offset="0" size="4" shape="" element_type="f32"/>
			<output>
				<port id="0" precision="FP32"/>
			</output>
		</layer>
		<layer id="427" name="4282428629290" type="Const" version="opset1">
			<data offset="6588" size="4" shape="" element_type="f32"/>
			<output>
				<port id="0" precision="FP32"/>
			</output>
		</layer>
		<layer id="428" name="4283428729551" type="Const" version="opset1">
			<data offset="0" size="4" shape="" element_type="f32"/>
			<output>
				<port id="0" precision="FP32"/>
			</output>
		</layer>
		<layer id="429" name="4284428829029" type="Const" version="opset1">
			<data offset="6588" size="4" shape="" element_type="f32"/>
			<output>
				<port id="0" precision="FP32"/>
			</output>
		</layer>
		<layer id="430" name="6241624530067" type="Const" version="opset1">
			<data offset="6592" size="4" shape="" element_type="f32"/>
			<output>
				<port id="0" precision="FP32"/>
			</output>
		</layer>
		<layer id="431" name="6242624630634" type="Const" version="opset1">
			<data offset="6596" size="4" shape="" element_type="f32"/>
			<output>
				<port id="0" precision="FP32"/>
			</output>
		</layer>
		<layer id="432" name="6243624731360" type="Const" version="opset1">
			<data offset="6592" size="4" shape="" element_type="f32"/>
			<output>
				<port id="0" precision="FP32"/>
			</output>
		</layer>
		<layer id="433" name="6244624828939" type="Const" version="opset1">
			<data offset="6596" size="4" shape="" element_type="f32"/>
			<output>
				<port id="0" precision="FP32"/>
			</output>
		</layer>
		<layer id="434" name="4751475529110" type="Const" version="opset1">
			<data offset="0" size="4" shape="" element_type="f32"/>
			<output>
				<port id="0" precision="FP32"/>
			</output>
		</layer>
		<layer id="435" name="4752475629053" type="Const" version="opset1">
			<data offset="6600" size="4" shape="" element_type="f32"/>
			<output>
				<port id="0" precision="FP32"/>
			</output>
		</layer>
		<layer id="436" name="4753475731306" type="Const" version="opset1">
			<data offset="0" size="4" shape="" element_type="f32"/>
			<output>
				<port id="0" precision="FP32"/>
			</output>
		</layer>
		<layer id="437" name="4754475829875" type="Const" version="opset1">
			<data offset="6600" size="4" shape="" element_type="f32"/>
			<output>
				<port id="0" precision="FP32"/>
			</output>
		</layer>
		<layer id="438" name="6491649529377" type="Const" version="opset1">
			<data offset="5900" size="64" shape="1,16,1,1" element_type="f32"/>
			<output>
				<port id="0" precision="FP32">
					<dim>1</dim>
					<dim>16</dim>
					<dim>1</dim>
					<dim>1</dim>
				</port>
			</output>
		</layer>
		<layer id="439" name="6492649628567" type="Const" version="opset1">
			<data offset="6604" size="64" shape="1,16,1,1" element_type="f32"/>
			<output>
				<port id="0" precision="FP32">
					<dim>1</dim>
					<dim>16</dim>
					<dim>1</dim>
					<dim>1</dim>
				</port>
			</output>
		</layer>
		<layer id="440" name="6493649731696" type="Const" version="opset1">
			<data offset="5900" size="64" shape="1,16,1,1" element_type="f32"/>
			<output>
				<port id="0" precision="FP32">
					<dim>1</dim>
					<dim>16</dim>
					<dim>1</dim>
					<dim>1</dim>
				</port>
			</output>
		</layer>
		<layer id="441" name="6494649828765" type="Const" version="opset1">
			<data offset="6604" size="64" shape="1,16,1,1" element_type="f32"/>
			<output>
				<port id="0" precision="FP32">
					<dim>1</dim>
					<dim>16</dim>
					<dim>1</dim>
					<dim>1</dim>
				</port>
			</output>
		</layer>
		<layer id="442" name="L0039_Conv2d_BN/WithoutBiases/fq_weights_1/scale1952729809" type="Const" version="opset1">
			<data offset="6668" size="64" shape="16,1,1,1" element_type="f32"/>
			<output>
				<port id="0" precision="FP32">
					<dim>16</dim>
					<dim>1</dim>
					<dim>1</dim>
					<dim>1</dim>
				</port>
			</output>
		</layer>
		<layer id="443" name="469118215390/restored_convert/quantized1951928768" type="Const" version="opset1">
			<data offset="6732" size="2048" shape="16,32,2,2" element_type="i8"/>
			<output>
				<port id="0" precision="I8">
					<dim>16</dim>
					<dim>32</dim>
					<dim>2</dim>
					<dim>2</dim>
				</port>
			</output>
		</layer>
		<layer id="444" name="469118215390/restored_convert/quantized/to_f32" type="Convert" version="opset1">
			<data destination_type="f32"/>
			<input>
				<port id="0">
					<dim>16</dim>
					<dim>32</dim>
					<dim>2</dim>
					<dim>2</dim>
				</port>
			</input>
			<output>
				<port id="1" precision="FP32">
					<dim>16</dim>
					<dim>32</dim>
					<dim>2</dim>
					<dim>2</dim>
				</port>
			</output>
		</layer>
		<layer id="445" name="L0039_Conv2d_BN/WithoutBiases/fq_weights_1/mulpiply_by_scale" type="Multiply" version="opset1">
			<data auto_broadcast="numpy"/>
			<input>
				<port id="0">
					<dim>16</dim>
					<dim>32</dim>
					<dim>2</dim>
					<dim>2</dim>
				</port>
				<port id="1">
					<dim>16</dim>
					<dim>1</dim>
					<dim>1</dim>
					<dim>1</dim>
				</port>
			</input>
			<output>
				<port id="2" precision="FP32">
					<dim>16</dim>
					<dim>32</dim>
					<dim>2</dim>
					<dim>2</dim>
				</port>
			</output>
		</layer>
		<layer id="446" name="L0039_Conv2d_BN/WithoutBiases" type="Convolution" version="opset1">
			<data auto_pad="explicit" strides="2,2" dilations="1,1" pads_begin="0,0" pads_end="0,0"/>
			<input>
				<port id="0">
					<dim>1</dim>
					<dim>32</dim>
					<dim>256</dim>
					<dim>448</dim>
				</port>
				<port id="1">
					<dim>16</dim>
					<dim>32</dim>
					<dim>2</dim>
					<dim>2</dim>
				</port>
			</input>
			<output>
				<port id="2" precision="FP32">
					<dim>1</dim>
					<dim>16</dim>
					<dim>128</dim>
					<dim>224</dim>
				</port>
			</output>
		</layer>
		<layer id="447" name="L0039_Conv2d_BN/Dims6077118531171" type="Const" version="opset1">
			<data offset="8780" size="32" shape="1,16,1,1" element_type="f16"/>
			<output>
				<port id="0" precision="FP16">
					<dim>1</dim>
					<dim>16</dim>
					<dim>1</dim>
					<dim>1</dim>
				</port>
			</output>
		</layer>
		<layer id="448" name="L0039_Conv2d_BN/Dims6077118515391/restored_convert" type="Convert" version="opset1">
			<data destination_type="f32"/>
			<rt_info>
				<attribute name="decompression" version="0"/>
			</rt_info>
			<input>
				<port id="0">
					<dim>1</dim>
					<dim>16</dim>
					<dim>1</dim>
					<dim>1</dim>
				</port>
			</input>
			<output>
				<port id="1" precision="FP32">
					<dim>1</dim>
					<dim>16</dim>
					<dim>1</dim>
					<dim>1</dim>
				</port>
			</output>
		</layer>
		<layer id="449" name="L0039_Conv2d_BN" type="Add" version="opset1">
			<data auto_broadcast="numpy"/>
			<input>
				<port id="0">
					<dim>1</dim>
					<dim>16</dim>
					<dim>128</dim>
					<dim>224</dim>
				</port>
				<port id="1">
					<dim>1</dim>
					<dim>16</dim>
					<dim>1</dim>
					<dim>1</dim>
				</port>
			</input>
			<output>
				<port id="2" precision="FP32" names="L0039_Conv2d_BN">
					<dim>1</dim>
					<dim>16</dim>
					<dim>128</dim>
					<dim>224</dim>
				</port>
			</output>
		</layer>
		<layer id="450" name="L0040_ReLU" type="ReLU" version="opset1">
			<input>
				<port id="0">
					<dim>1</dim>
					<dim>16</dim>
					<dim>128</dim>
					<dim>224</dim>
				</port>
			</input>
			<output>
				<port id="1" precision="FP32" names="L0040_ReLU">
					<dim>1</dim>
					<dim>16</dim>
					<dim>128</dim>
					<dim>224</dim>
				</port>
			</output>
		</layer>
		<layer id="451" name="L0041_Conv2d_BN/WithoutBiases/fq_input_0" type="FakeQuantize" version="opset1">
			<data levels="256" auto_broadcast="numpy"/>
			<input>
				<port id="0">
					<dim>1</dim>
					<dim>16</dim>
					<dim>128</dim>
					<dim>224</dim>
				</port>
				<port id="1">
					<dim>1</dim>
					<dim>16</dim>
					<dim>1</dim>
					<dim>1</dim>
				</port>
				<port id="2">
					<dim>1</dim>
					<dim>16</dim>
					<dim>1</dim>
					<dim>1</dim>
				</port>
				<port id="3">
					<dim>1</dim>
					<dim>16</dim>
					<dim>1</dim>
					<dim>1</dim>
				</port>
				<port id="4">
					<dim>1</dim>
					<dim>16</dim>
					<dim>1</dim>
					<dim>1</dim>
				</port>
			</input>
			<output>
				<port id="5" precision="FP32">
					<dim>1</dim>
					<dim>16</dim>
					<dim>128</dim>
					<dim>224</dim>
				</port>
			</output>
		</layer>
		<layer id="452" name="L0041_Conv2d_BN/WithoutBiases/weights_shape2543830844" type="Const" version="opset1">
…
		<edge from-layer="1896" from-port="2" to-layer="1897" to-port="0"/>
		<edge from-layer="1892" from-port="0" to-layer="1897" to-port="1"/>
		<edge from-layer="1891" from-port="5" to-layer="1898" to-port="0"/>
		<edge from-layer="1897" from-port="2" to-layer="1898" to-port="1"/>
		<edge from-layer="1899" from-port="0" to-layer="1900" to-port="0"/>
		<edge from-layer="1898" from-port="2" to-layer="1901" to-port="0"/>
		<edge from-layer="1900" from-port="1" to-layer="1901" to-port="1"/>
		<edge from-layer="1901" from-port="2" to-layer="1902" to-port="0"/>
		<edge from-layer="1902" from-port="1" to-layer="1903" to-port="0"/>
		<edge from-layer="935" from-port="0" to-layer="1903" to-port="1"/>
		<edge from-layer="936" from-port="0" to-layer="1903" to-port="2"/>
		<edge from-layer="937" from-port="0" to-layer="1903" to-port="3"/>
		<edge from-layer="938" from-port="0" to-layer="1903" to-port="4"/>
		<edge from-layer="1905" from-port="0" to-layer="1906" to-port="0"/>
		<edge from-layer="1906" from-port="1" to-layer="1907" to-port="0"/>
		<edge from-layer="1904" from-port="0" to-layer="1907" to-port="1"/>
		<edge from-layer="1903" from-port="5" to-layer="1908" to-port="0"/>
		<edge from-layer="1907" from-port="2" to-layer="1908" to-port="1"/>
		<edge from-layer="1909" from-port="0" to-layer="1910" to-port="0"/>
		<edge from-layer="1908" from-port="2" to-layer="1911" to-port="0"/>
		<edge from-layer="1910" from-port="1" to-layer="1911" to-port="1"/>
		<edge from-layer="1911" from-port="2" to-layer="1912" to-port="0"/>
		<edge from-layer="931" from-port="0" to-layer="1912" to-port="1"/>
		<edge from-layer="932" from-port="0" to-layer="1912" to-port="2"/>
		<edge from-layer="933" from-port="0" to-layer="1912" to-port="3"/>
		<edge from-layer="934" from-port="0" to-layer="1912" to-port="4"/>
		<edge from-layer="1918" from-port="0" to-layer="1919" to-port="0"/>
		<edge from-layer="1919" from-port="1" to-layer="1920" to-port="0"/>
		<edge from-layer="1917" from-port="0" to-layer="1920" to-port="1"/>
		<edge from-layer="1881" from-port="5" to-layer="1921" to-port="0"/>
		<edge from-layer="1920" from-port="2" to-layer="1921" to-port="1"/>
		<edge from-layer="1922" from-port="0" to-layer="1923" to-port="0"/>
		<edge from-layer="1921" from-port="2" to-layer="1924" to-port="0"/>
		<edge from-layer="1923" from-port="1" to-layer="1924" to-port="1"/>
		<edge from-layer="1924" from-port="2" to-layer="1925" to-port="0"/>
		<edge from-layer="1913" from-port="0" to-layer="1925" to-port="1"/>
		<edge from-layer="1914" from-port="0" to-layer="1925" to-port="2"/>
		<edge from-layer="1915" from-port="0" to-layer="1925" to-port="3"/>
		<edge from-layer="1916" from-port="0" to-layer="1925" to-port="4"/>
		<edge from-layer="1912" from-port="5" to-layer="1926" to-port="0"/>
		<edge from-layer="1925" from-port="5" to-layer="1926" to-port="1"/>
		<edge from-layer="1926" from-port="2" to-layer="1927" to-port="0"/>
		<edge from-layer="1927" from-port="1" to-layer="1928" to-port="0"/>
		<edge from-layer="927" from-port="0" to-layer="1928" to-port="1"/>
		<edge from-layer="928" from-port="0" to-layer="1928" to-port="2"/>
		<edge from-layer="929" from-port="0" to-layer="1928" to-port="3"/>
		<edge from-layer="930" from-port="0" to-layer="1928" to-port="4"/>
		<edge from-layer="1930" from-port="0" to-layer="1931" to-port="0"/>
		<edge from-layer="1931" from-port="1" to-layer="1932" to-port="0"/>
		<edge from-layer="1929" from-port="0" to-layer="1932" to-port="1"/>
		<edge from-layer="1928" from-port="5" to-layer="1933" to-port="0"/>
		<edge from-layer="1932" from-port="2" to-layer="1933" to-port="1"/>
		<edge from-layer="1934" from-port="0" to-layer="1935" to-port="0"/>
		<edge from-layer="1933" from-port="2" to-layer="1936" to-port="0"/>
		<edge from-layer="1935" from-port="1" to-layer="1936" to-port="1"/>
		<edge from-layer="1936" from-port="2" to-layer="1937" to-port="0"/>
		<edge from-layer="1937" from-port="1" to-layer="1938" to-port="0"/>
		<edge from-layer="923" from-port="0" to-layer="1938" to-port="1"/>
		<edge from-layer="924" from-port="0" to-layer="1938" to-port="2"/>
		<edge from-layer="925" from-port="0" to-layer="1938" to-port="3"/>
		<edge from-layer="926" from-port="0" to-layer="1938" to-port="4"/>
		<edge from-layer="1941" from-port="0" to-layer="1942" to-port="0"/>
		<edge from-layer="1942" from-port="1" to-layer="1943" to-port="0"/>
		<edge from-layer="1940" from-port="0" to-layer="1943" to-port="1"/>
		<edge from-layer="1943" from-port="2" to-layer="1944" to-port="0"/>
		<edge from-layer="1939" from-port="0" to-layer="1944" to-port="1"/>
		<edge from-layer="1938" from-port="5" to-layer="1945" to-port="0"/>
		<edge from-layer="1944" from-port="2" to-layer="1945" to-port="1"/>
		<edge from-layer="1946" from-port="0" to-layer="1947" to-port="0"/>
		<edge from-layer="1945" from-port="2" to-layer="1948" to-port="0"/>
		<edge from-layer="1947" from-port="1" to-layer="1948" to-port="1"/>
		<edge from-layer="1948" from-port="2" to-layer="1949" to-port="0"/>
		<edge from-layer="1949" from-port="1" to-layer="1950" to-port="0"/>
		<edge from-layer="919" from-port="0" to-layer="1950" to-port="1"/>
		<edge from-layer="920" from-port="0" to-layer="1950" to-port="2"/>
		<edge from-layer="921" from-port="0" to-layer="1950" to-port="3"/>
		<edge from-layer="922" from-port="0" to-layer="1950" to-port="4"/>
		<edge from-layer="1952" from-port="0" to-layer="1953" to-port="0"/>
		<edge from-layer="1953" from-port="1" to-layer="1954" to-port="0"/>
		<edge from-layer="1951" from-port="0" to-layer="1954" to-port="1"/>
		<edge from-layer="1950" from-port="5" to-layer="1955" to-port="0"/>
		<edge from-layer="1954" from-port="2" to-layer="1955" to-port="1"/>
		<edge from-layer="1956" from-port="0" to-layer="1957" to-port="0"/>
		<edge from-layer="1955" from-port="2" to-layer="1958" to-port="0"/>
		<edge from-layer="1957" from-port="1" to-layer="1958" to-port="1"/>
		<edge from-layer="1958" from-port="2" to-layer="1959" to-port="0"/>
		<edge from-layer="915" from-port="0" to-layer="1959" to-port="1"/>
		<edge from-layer="916" from-port="0" to-layer="1959" to-port="2"/>
		<edge from-layer="917" from-port="0" to-layer="1959" to-port="3"/>
		<edge from-layer="918" from-port="0" to-layer="1959" to-port="4"/>
		<edge from-layer="1959" from-port="5" to-layer="1960" to-port="0"/>
		<edge from-layer="1928" from-port="5" to-layer="1960" to-port="1"/>
		<edge from-layer="1960" from-port="2" to-layer="1961" to-port="0"/>
		<edge from-layer="1961" from-port="1" to-layer="1962" to-port="0"/>
		<edge from-layer="911" from-port="0" to-layer="1962" to-port="1"/>
		<edge from-layer="912" from-port="0" to-layer="1962" to-port="2"/>
		<edge from-layer="913" from-port="0" to-layer="1962" to-port="3"/>
		<edge from-layer="914" from-port="0" to-layer="1962" to-port="4"/>
		<edge from-layer="1964" from-port="0" to-layer="1965" to-port="0"/>
		<edge from-layer="1965" from-port="1" to-layer="1966" to-port="0"/>
		<edge from-layer="1963" from-port="0" to-layer="1966" to-port="1"/>
		<edge from-layer="1962" from-port="5" to-layer="1967" to-port="0"/>
		<edge from-layer="1966" from-port="2" to-layer="1967" to-port="1"/>
		<edge from-layer="1968" from-port="0" to-layer="1969" to-port="0"/>
		<edge from-layer="1967" from-port="2" to-layer="1970" to-port="0"/>
		<edge from-layer="1969" from-port="1" to-layer="1970" to-port="1"/>
		<edge from-layer="1970" from-port="2" to-layer="1971" to-port="0"/>
		<edge from-layer="1971" from-port="1" to-layer="1972" to-port="0"/>
		<edge from-layer="907" from-port="0" to-layer="1972" to-port="1"/>
		<edge from-layer="908" from-port="0" to-layer="1972" to-port="2"/>
		<edge from-layer="909" from-port="0" to-layer="1972" to-port="3"/>
		<edge from-layer="910" from-port="0" to-layer="1972" to-port="4"/>
		<edge from-layer="1975" from-port="0" to-layer="1976" to-port="0"/>
		<edge from-layer="1976" from-port="1" to-layer="1977" to-port="0"/>
		<edge from-layer="1974" from-port="0" to-layer="1977" to-port="1"/>
		<edge from-layer="1977" from-port="2" to-layer="1978" to-port="0"/>
		<edge from-layer="1973" from-port="0" to-layer="1978" to-port="1"/>
		<edge from-layer="1972" from-port="5" to-layer="1979" to-port="0"/>
		<edge from-layer="1978" from-port="2" to-layer="1979" to-port="1"/>
		<edge from-layer="1980" from-port="0" to-layer="1981" to-port="0"/>
		<edge from-layer="1979" from-port="2" to-layer="1982" to-port="0"/>
		<edge from-layer="1981" from-port="1" to-layer="1982" to-port="1"/>
		<edge from-layer="1982" from-port="2" to-layer="1983" to-port="0"/>
		<edge from-layer="1983" from-port="1" to-layer="1984" to-port="0"/>
		<edge from-layer="903" from-port="0" to-layer="1984" to-port="1"/>
		<edge from-layer="904" from-port="0" to-layer="1984" to-port="2"/>
		<edge from-layer="905" from-port="0" to-layer="1984" to-port="3"/>
		<edge from-layer="906" from-port="0" to-layer="1984" to-port="4"/>
		<edge from-layer="1986" from-port="0" to-layer="1987" to-port="0"/>
		<edge from-layer="1987" from-port="1" to-layer="1988" to-port="0"/>
		<edge from-layer="1985" from-port="0" to-layer="1988" to-port="1"/>
		<edge from-layer="1984" from-port="5" to-layer="1989" to-port="0"/>
		<edge from-layer="1988" from-port="2" to-layer="1989" to-port="1"/>
		<edge from-layer="1990" from-port="0" to-layer="1991" to-port="0"/>
		<edge from-layer="1989" from-port="2" to-layer="1992" to-port="0"/>
		<edge from-layer="1991" from-port="1" to-layer="1992" to-port="1"/>
		<edge from-layer="1992" from-port="2" to-layer="1993" to-port="0"/>
		<edge from-layer="899" from-port="0" to-layer="1993" to-port="1"/>
		<edge from-layer="900" from-port="0" to-layer="1993" to-port="2"/>
		<edge from-layer="901" from-port="0" to-layer="1993" to-port="3"/>
		<edge from-layer="902" from-port="0" to-layer="1993" to-port="4"/>
		<edge from-layer="1993" from-port="5" to-layer="1994" to-port="0"/>
		<edge from-layer="1962" from-port="5" to-layer="1994" to-port="1"/>
		<edge from-layer="1994" from-port="2" to-layer="1995" to-port="0"/>
		<edge from-layer="1995" from-port="1" to-layer="1996" to-port="0"/>
		<edge from-layer="895" from-port="0" to-layer="1996" to-port="1"/>
		<edge from-layer="896" from-port="0" to-layer="1996" to-port="2"/>
		<edge from-layer="897" from-port="0" to-layer="1996" to-port="3"/>
		<edge from-layer="898" from-port="0" to-layer="1996" to-port="4"/>
		<edge from-layer="1998" from-port="0" to-layer="1999" to-port="0"/>
		<edge from-layer="1999" from-port="1" to-layer="2000" to-port="0"/>
		<edge from-layer="1997" from-port="0" to-layer="2000" to-port="1"/>
		<edge from-layer="1996" from-port="5" to-layer="2001" to-port="0"/>
		<edge from-layer="2000" from-port="2" to-layer="2001" to-port="1"/>
		<edge from-layer="2002" from-port="0" to-layer="2003" to-port="0"/>
		<edge from-layer="2001" from-port="2" to-layer="2004" to-port="0"/>
		<edge from-layer="2003" from-port="1" to-layer="2004" to-port="1"/>
		<edge from-layer="2004" from-port="2" to-layer="2005" to-port="0"/>
		<edge from-layer="2005" from-port="1" to-layer="2006" to-port="0"/>
		<edge from-layer="891" from-port="0" to-layer="2006" to-port="1"/>
		<edge from-layer="892" from-port="0" to-layer="2006" to-port="2"/>
		<edge from-layer="893" from-port="0" to-layer="2006" to-port="3"/>
		<edge from-layer="894" from-port="0" to-layer="2006" to-port="4"/>
		<edge from-layer="2009" from-port="0" to-layer="2010" to-port="0"/>
		<edge from-layer="2010" from-port="1" to-layer="2011" to-port="0"/>
		<edge from-layer="2008" from-port="0" to-layer="2011" to-port="1"/>
		<edge from-layer="2011" from-port="2" to-layer="2012" to-port="0"/>
		<edge from-layer="2007" from-port="0" to-layer="2012" to-port="1"/>
		<edge from-layer="2006" from-port="5" to-layer="2013" to-port="0"/>
		<edge from-layer="2012" from-port="2" to-layer="2013" to-port="1"/>
		<edge from-layer="2014" from-port="0" to-layer="2015" to-port="0"/>
		<edge from-layer="2013" from-port="2" to-layer="2016" to-port="0"/>
		<edge from-layer="2015" from-port="1" to-layer="2016" to-port="1"/>
		<edge from-layer="2016" from-port="2" to-layer="2017" to-port="0"/>
		<edge from-layer="2017" from-port="1" to-layer="2018" to-port="0"/>
		<edge from-layer="887" from-port="0" to-layer="2018" to-port="1"/>
		<edge from-layer="888" from-port="0" to-layer="2018" to-port="2"/>
		<edge from-layer="889" from-port="0" to-layer="2018" to-port="3"/>
		<edge from-layer="890" from-port="0" to-layer="2018" to-port="4"/>
		<edge from-layer="2020" from-port="0" to-layer="2021" to-port="0"/>
		<edge from-layer="2021" from-port="1" to-layer="2022" to-port="0"/>
		<edge from-layer="2019" from-port="0" to-layer="2022" to-port="1"/>
		<edge from-layer="2018" from-port="5" to-layer="2023" to-port="0"/>
		<edge from-layer="2022" from-port="2" to-layer="2023" to-port="1"/>
		<edge from-layer="2024" from-port="0" to-layer="2025" to-port="0"/>
		<edge from-layer="2023" from-port="2" to-layer="2026" to-port="0"/>
		<edge from-layer="2025" from-port="1" to-layer="2026" to-port="1"/>
		<edge from-layer="2026" from-port="2" to-layer="2027" to-port="0"/>
		<edge from-layer="883" from-port="0" to-layer="2027" to-port="1"/>
		<edge from-layer="884" from-port="0" to-layer="2027" to-port="2"/>
		<edge from-layer="885" from-port="0" to-layer="2027" to-port="3"/>
		<edge from-layer="886" from-port="0" to-layer="2027" to-port="4"/>
		<edge from-layer="2033" from-port="0" to-layer="2034" to-port="0"/>
		<edge from-layer="2034" from-port="1" to-layer="2035" to-port="0"/>
		<edge from-layer="2032" from-port="0" to-layer="2035" to-port="1"/>
		<edge from-layer="1996" from-port="5" to-layer="2036" to-port="0"/>
		<edge from-layer="2035" from-port="2" to-layer="2036" to-port="1"/>
		<edge from-layer="2037" from-port="0" to-layer="2038" to-port="0"/>
		<edge from-layer="2036" from-port="2" to-layer="2039" to-port="0"/>
		<edge from-layer="2038" from-port="1" to-layer="2039" to-port="1"/>
		<edge from-layer="2039" from-port="2" to-layer="2040" to-port="0"/>
		<edge from-layer="2028" from-port="0" to-layer="2040" to-port="1"/>
		<edge from-layer="2029" from-port="0" to-layer="2040" to-port="2"/>
		<edge from-layer="2030" from-port="0" to-layer="2040" to-port="3"/>
		<edge from-layer="2031" from-port="0" to-layer="2040" to-port="4"/>
		<edge from-layer="2027" from-port="5" to-layer="2041" to-port="0"/>
		<edge from-layer="2040" from-port="5" to-layer="2041" to-port="1"/>
		<edge from-layer="2041" from-port="2" to-layer="2042" to-port="0"/>
		<edge from-layer="2042" from-port="1" to-layer="2043" to-port="0"/>
		<edge from-layer="879" from-port="0" to-layer="2043" to-port="1"/>
		<edge from-layer="880" from-port="0" to-layer="2043" to-port="2"/>
		<edge from-layer="881" from-port="0" to-layer="2043" to-port="3"/>
		<edge from-layer="882" from-port="0" to-layer="2043" to-port="4"/>
		<edge from-layer="2045" from-port="0" to-layer="2046" to-port="0"/>
		<edge from-layer="2046" from-port="1" to-layer="2047" to-port="0"/>
		<edge from-layer="2044" from-port="0" to-layer="2047" to-port="1"/>
		<edge from-layer="2043" from-port="5" to-layer="2048" to-port="0"/>
		<edge from-layer="2047" from-port="2" to-layer="2048" to-port="1"/>
		<edge from-layer="2049" from-port="0" to-layer="2050" to-port="0"/>
		<edge from-layer="2048" from-port="2" to-layer="2051" to-port="0"/>
		<edge from-layer="2050" from-port="1" to-layer="2051" to-port="1"/>
		<edge from-layer="2051" from-port="2" to-layer="2052" to-port="0"/>
		<edge from-layer="2052" from-port="1" to-layer="2053" to-port="0"/>
		<edge from-layer="875" from-port="0" to-layer="2053" to-port="1"/>
		<edge from-layer="876" from-port="0" to-layer="2053" to-port="2"/>
		<edge from-layer="877" from-port="0" to-layer="2053" to-port="3"/>
		<edge from-layer="878" from-port="0" to-layer="2053" to-port="4"/>
		<edge from-layer="2056" from-port="0" to-layer="2057" to-port="0"/>
		<edge from-layer="2057" from-port="1" to-layer="2058" to-port="0"/>
		<edge from-layer="2055" from-port="0" to-layer="2058" to-port="1"/>
		<edge from-layer="2058" from-port="2" to-layer="2059" to-port="0"/>
		<edge from-layer="2054" from-port="0" to-layer="2059" to-port="1"/>
		<edge from-layer="2053" from-port="5" to-layer="2060" to-port="0"/>
		<edge from-layer="2059" from-port="2" to-layer="2060" to-port="1"/>
		<edge from-layer="2061" from-port="0" to-layer="2062" to-port="0"/>
		<edge from-layer="2060" from-port="2" to-layer="2063" to-port="0"/>
		<edge from-layer="2062" from-port="1" to-layer="2063" to-port="1"/>
		<edge from-layer="2063" from-port="2" to-layer="2064" to-port="0"/>
		<edge from-layer="2064" from-port="1" to-layer="2065" to-port="0"/>
		<edge from-layer="871" from-port="0" to-layer="2065" to-port="1"/>
		<edge from-layer="872" from-port="0" to-layer="2065" to-port="2"/>
		<edge from-layer="873" from-port="0" to-layer="2065" to-port="3"/>
		<edge from-layer="874" from-port="0" to-layer="2065" to-port="4"/>
		<edge from-layer="2067" from-port="0" to-layer="2068" to-port="0"/>
		<edge from-layer="2068" from-port="1" to-layer="2069" to-port="0"/>
		<edge from-layer="2066" from-port="0" to-layer="2069" to-port="1"/>
		<edge from-layer="2065" from-port="5" to-layer="2070" to-port="0"/>
		<edge from-layer="2069" from-port="2" to-layer="2070" to-port="1"/>
		<edge from-layer="2071" from-port="0" to-layer="2072" to-port="0"/>
		<edge from-layer="2070" from-port="2" to-layer="2073" to-port="0"/>
		<edge from-layer="2072" from-port="1" to-layer="2073" to-port="1"/>
		<edge from-layer="2073" from-port="2" to-layer="2074" to-port="0"/>
		<edge from-layer="867" from-port="0" to-layer="2074" to-port="1"/>
		<edge from-layer="868" from-port="0" to-layer="2074" to-port="2"/>
		<edge from-layer="869" from-port="0" to-layer="2074" to-port="3"/>
		<edge from-layer="870" from-port="0" to-layer="2074" to-port="4"/>
		<edge from-layer="2074" from-port="5" to-layer="2075" to-port="0"/>
		<edge from-layer="2043" from-port="5" to-layer="2075" to-port="1"/>
		<edge from-layer="2075" from-port="2" to-layer="2076" to-port="0"/>
		<edge from-layer="2076" from-port="1" to-layer="2077" to-port="0"/>
		<edge from-layer="863" from-port="0" to-layer="2077" to-port="1"/>
		<edge from-layer="864" from-port="0" to-layer="2077" to-port="2"/>
		<edge from-layer="865" from-port="0" to-layer="2077" to-port="3"/>
		<edge from-layer="866" from-port="0" to-layer="2077" to-port="4"/>
		<edge from-layer="2079" from-port="0" to-layer="2080" to-port="0"/>
		<edge from-layer="2080" from-port="1" to-layer="2081" to-port="0"/>
		<edge from-layer="2078" from-port="0" to-layer="2081" to-port="1"/>
		<edge from-layer="2077" from-port="5" to-layer="2082" to-port="0"/>
		<edge from-layer="2081" from-port="2" to-layer="2082" to-port="1"/>
		<edge from-layer="2083" from-port="0" to-layer="2084" to-port="0"/>
		<edge from-layer="2082" from-port="2" to-layer="2085" to-port="0"/>
		<edge from-layer="2084" from-port="1" to-layer="2085" to-port="1"/>
		<edge from-layer="2085" from-port="2" to-layer="2086" to-port="0"/>
		<edge from-layer="2086" from-port="1" to-layer="2087" to-port="0"/>
		<edge from-layer="859" from-port="0" to-layer="2087" to-port="1"/>
		<edge from-layer="860" from-port="0" to-layer="2087" to-port="2"/>
		<edge from-layer="861" from-port="0" to-layer="2087" to-port="3"/>
		<edge from-layer="862" from-port="0" to-layer="2087" to-port="4"/>
		<edge from-layer="2090" from-port="0" to-layer="2091" to-port="0"/>
		<edge from-layer="2091" from-port="1" to-layer="2092" to-port="0"/>
		<edge from-layer="2089" from-port="0" to-layer="2092" to-port="1"/>
		<edge from-layer="2092" from-port="2" to-layer="2093" to-port="0"/>
		<edge from-layer="2088" from-port="0" to-layer="2093" to-port="1"/>
		<edge from-layer="2087" from-port="5" to-layer="2094" to-port="0"/>
		<edge from-layer="2093" from-port="2" to-layer="2094" to-port="1"/>
		<edge from-layer="2095" from-port="0" to-layer="2096" to-port="0"/>
		<edge from-layer="2094" from-port="2" to-layer="2097" to-port="0"/>
		<edge from-layer="2096" from-port="1" to-layer="2097" to-port="1"/>
		<edge from-layer="2097" from-port="2" to-layer="2098" to-port="0"/>
		<edge from-layer="2098" from-port="1" to-layer="2099" to-port="0"/>
		<edge from-layer="855" from-port="0" to-layer="2099" to-port="1"/>
		<edge from-layer="856" from-port="0" to-layer="2099" to-port="2"/>
		<edge from-layer="857" from-port="0" to-layer="2099" to-port="3"/>
		<edge from-layer="858" from-port="0" to-layer="2099" to-port="4"/>
		<edge from-layer="2101" from-port="0" to-layer="2102" to-port="0"/>
		<edge from-layer="2102" from-port="1" to-layer="2103" to-port="0"/>
		<edge from-layer="2100" from-port="0" to-layer="2103" to-port="1"/>
		<edge from-layer="2099" from-port="5" to-layer="2104" to-port="0"/>
		<edge from-layer="2103" from-port="2" to-layer="2104" to-port="1"/>
		<edge from-layer="2105" from-port="0" to-layer="2106" to-port="0"/>
		<edge from-layer="2104" from-port="2" to-layer="2107" to-port="0"/>
		<edge from-layer="2106" from-port="1" to-layer="2107" to-port="1"/>
		<edge from-layer="2107" from-port="2" to-layer="2108" to-port="0"/>
		<edge from-layer="851" from-port="0" to-layer="2108" to-port="1"/>
		<edge from-layer="852" from-port="0" to-layer="2108" to-port="2"/>
		<edge from-layer="853" from-port="0" to-layer="2108" to-port="3"/>
		<edge from-layer="854" from-port="0" to-layer="2108" to-port="4"/>
		<edge from-layer="2108" from-port="5" to-layer="2109" to-port="0"/>
		<edge from-layer="2077" from-port="5" to-layer="2109" to-port="1"/>
		<edge from-layer="2109" from-port="2" to-layer="2110" to-port="0"/>
		<edge from-layer="2110" from-port="1" to-layer="2111" to-port="0"/>
		<edge from-layer="847" from-port="0" to-layer="2111" to-port="1"/>
		<edge from-layer="848" from-port="0" to-layer="2111" to-port="2"/>
		<edge from-layer="849" from-port="0" to-layer="2111" to-port="3"/>
		<edge from-layer="850" from-port="0" to-layer="2111" to-port="4"/>
		<edge from-layer="2113" from-port="0" to-layer="2114" to-port="0"/>
		<edge from-layer="2114" from-port="1" to-layer="2115" to-port="0"/>
		<edge from-layer="2112" from-port="0" to-layer="2115" to-port="1"/>
		<edge from-layer="2111" from-port="5" to-layer="2116" to-port="0"/>
		<edge from-layer="2115" from-port="2" to-layer="2116" to-port="1"/>
		<edge from-layer="2117" from-port="0" to-layer="2118" to-port="0"/>
		<edge from-layer="2116" from-port="2" to-layer="2119" to-port="0"/>
		<edge from-layer="2118" from-port="1" to-layer="2119" to-port="1"/>
		<edge from-layer="2119" from-port="2" to-layer="2120" to-port="0"/>
		<edge from-layer="2120" from-port="1" to-layer="2121" to-port="0"/>
		<edge from-layer="843" from-port="0" to-layer="2121" to-port="1"/>
		<edge from-layer="844" from-port="0" to-layer="2121" to-port="2"/>
		<edge from-layer="845" from-port="0" to-layer="2121" to-port="3"/>
		<edge from-layer="846" from-port="0" to-layer="2121" to-port="4"/>
		<edge from-layer="2124" from-port="0" to-layer="2125" to-port="0"/>
		<edge from-layer="2125" from-port="1" to-layer="2126" to-port="0"/>
		<edge from-layer="2123" from-port="0" to-layer="2126" to-port="1"/>
		<edge from-layer="2126" from-port="2" to-layer="2127" to-port="0"/>
		<edge from-layer="2122" from-port="0" to-layer="2127" to-port="1"/>
		<edge from-layer="2121" from-port="5" to-layer="2128" to-port="0"/>
		<edge from-layer="2127" from-port="2" to-layer="2128" to-port="1"/>
		<edge from-layer="2129" from-port="0" to-layer="2130" to-port="0"/>
		<edge from-layer="2128" from-port="2" to-layer="2131" to-port="0"/>
		<edge from-layer="2130" from-port="1" to-layer="2131" to-port="1"/>
		<edge from-layer="2131" from-port="2" to-layer="2132" to-port="0"/>
		<edge from-layer="2132" from-port="1" to-layer="2133" to-port="0"/>
		<edge from-layer="839" from-port="0" to-layer="2133" to-port="1"/>
		<edge from-layer="840" from-port="0" to-layer="2133" to-port="2"/>
		<edge from-layer="841" from-port="0" to-layer="2133" to-port="3"/>
		<edge from-layer="842" from-port="0" to-layer="2133" to-port="4"/>
		<edge from-layer="2135" from-port="0" to-layer="2136" to-port="0"/>
		<edge from-layer="2136" from-port="1" to-layer="2137" to-port="0"/>
		<edge from-layer="2134" from-port="0" to-layer="2137" to-port="1"/>
		<edge from-layer="2133" from-port="5" to-layer="2138" to-port="0"/>
		<edge from-layer="2137" from-port="2" to-layer="2138" to-port="1"/>
		<edge from-layer="2139" from-port="0" to-layer="2140" to-port="0"/>
		<edge from-layer="2138" from-port="2" to-layer="2141" to-port="0"/>
		<edge from-layer="2140" from-port="1" to-layer="2141" to-port="1"/>
		<edge from-layer="2141" from-port="2" to-layer="2142" to-port="0"/>
		<edge from-layer="835" from-port="0" to-layer="2142" to-port="1"/>
		<edge from-layer="836" from-port="0" to-layer="2142" to-port="2"/>
		<edge from-layer="837" from-port="0" to-layer="2142" to-port="3"/>
		<edge from-layer="838" from-port="0" to-layer="2142" to-port="4"/>
		<edge from-layer="2142" from-port="5" to-layer="2143" to-port="0"/>
		<edge from-layer="2111" from-port="5" to-layer="2143" to-port="1"/>
		<edge from-layer="2143" from-port="2" to-layer="2144" to-port="0"/>
		<edge from-layer="2144" from-port="1" to-layer="2145" to-port="0"/>
		<edge from-layer="831" from-port="0" to-layer="2145" to-port="1"/>
		<edge from-layer="832" from-port="0" to-layer="2145" to-port="2"/>
		<edge from-layer="833" from-port="0" to-layer="2145" to-port="3"/>
		<edge from-layer="834" from-port="0" to-layer="2145" to-port="4"/>
		<edge from-layer="2145" from-port="5" to-layer="2146" to-port="0"/>
		<edge from-layer="2146" from-port="1" to-layer="2147" to-port="0"/>
		<edge from-layer="827" from-port="0" to-layer="2147" to-port="1"/>
		<edge from-layer="828" from-port="0" to-layer="2147" to-port="2"/>
		<edge from-layer="829" from-port="0" to-layer="2147" to-port="3"/>
		<edge from-layer="830" from-port="0" to-layer="2147" to-port="4"/>
		<edge from-layer="2149" from-port="0" to-layer="2150" to-port="0"/>
		<edge from-layer="2150" from-port="1" to-layer="2151" to-port="0"/>
		<edge from-layer="2148" from-port="0" to-layer="2151" to-port="1"/>
		<edge from-layer="2147" from-port="5" to-layer="2152" to-port="0"/>
		<edge from-layer="2151" from-port="2" to-layer="2152" to-port="1"/>
		<edge from-layer="2153" from-port="0" to-layer="2154" to-port="0"/>
		<edge from-layer="2152" from-port="2" to-layer="2155" to-port="0"/>
		<edge from-layer="2154" from-port="1" to-layer="2155" to-port="1"/>
		<edge from-layer="2155" from-port="2" to-layer="2156" to-port="0"/>
		<edge from-layer="2156" from-port="1" to-layer="2157" to-port="0"/>
		<edge from-layer="823" from-port="0" to-layer="2157" to-port="1"/>
		<edge from-layer="824" from-port="0" to-layer="2157" to-port="2"/>
		<edge from-layer="825" from-port="0" to-layer="2157" to-port="3"/>
		<edge from-layer="826" from-port="0" to-layer="2157" to-port="4"/>
		<edge from-layer="2156" from-port="1" to-layer="2158" to-port="0"/>
		<edge from-layer="2158" from-port="1" to-layer="2162" to-port="0"/>
		<edge from-layer="2159" from-port="0" to-layer="2162" to-port="1"/>
		<edge from-layer="2160" from-port="0" to-layer="2162" to-port="2"/>
		<edge from-layer="2161" from-port="0" to-layer="2162" to-port="3"/>
		<edge from-layer="2162" from-port="4" to-layer="2164" to-port="0"/>
		<edge from-layer="2163" from-port="0" to-layer="2164" to-port="1"/>
		<edge from-layer="2157" from-port="5" to-layer="2165" to-port="0"/>
		<edge from-layer="2164" from-port="2" to-layer="2165" to-port="1"/>
		<edge from-layer="821" from-port="0" to-layer="2165" to-port="2"/>
		<edge from-layer="822" from-port="0" to-layer="2165" to-port="3"/>
		<edge from-layer="2165" from-port="4" to-layer="2166" to-port="0"/>
		<edge from-layer="817" from-port="0" to-layer="2166" to-port="1"/>
		<edge from-layer="818" from-port="0" to-layer="2166" to-port="2"/>
		<edge from-layer="819" from-port="0" to-layer="2166" to-port="3"/>
		<edge from-layer="820" from-port="0" to-layer="2166" to-port="4"/>
		<edge from-layer="2168" from-port="0" to-layer="2169" to-port="0"/>
		<edge from-layer="2169" from-port="1" to-layer="2170" to-port="0"/>
		<edge from-layer="2167" from-port="0" to-layer="2170" to-port="1"/>
		<edge from-layer="2166" from-port="5" to-layer="2171" to-port="0"/>
		<edge from-layer="2170" from-port="2" to-layer="2171" to-port="1"/>
		<edge from-layer="2172" from-port="0" to-layer="2173" to-port="0"/>
		<edge from-layer="2171" from-port="2" to-layer="2174" to-port="0"/>
		<edge from-layer="2173" from-port="1" to-layer="2174" to-port="1"/>
		<edge from-layer="2174" from-port="2" to-layer="2175" to-port="0"/>
		<edge from-layer="2175" from-port="1" to-layer="2176" to-port="0"/>
		<edge from-layer="813" from-port="0" to-layer="2176" to-port="1"/>
		<edge from-layer="814" from-port="0" to-layer="2176" to-port="2"/>
		<edge from-layer="815" from-port="0" to-layer="2176" to-port="3"/>
		<edge from-layer="816" from-port="0" to-layer="2176" to-port="4"/>
		<edge from-layer="2145" from-port="5" to-layer="2177" to-port="0"/>
		<edge from-layer="2176" from-port="5" to-layer="2177" to-port="1"/>
		<edge from-layer="2177" from-port="2" to-layer="2178" to-port="0"/>
		<edge from-layer="809" from-port="0" to-layer="2178" to-port="1"/>
		<edge from-layer="810" from-port="0" to-layer="2178" to-port="2"/>
		<edge from-layer="811" from-port="0" to-layer="2178" to-port="3"/>
		<edge from-layer="812" from-port="0" to-layer="2178" to-port="4"/>
		<edge from-layer="2145" from-port="5" to-layer="2197" to-port="0"/>
		<edge from-layer="2197" from-port="1" to-layer="2198" to-port="0"/>
		<edge from-layer="2193" from-port="0" to-layer="2198" to-port="1"/>
		<edge from-layer="2194" from-port="0" to-layer="2198" to-port="2"/>
		<edge from-layer="2195" from-port="0" to-layer="2198" to-port="3"/>
		<edge from-layer="2196" from-port="0" to-layer="2198" to-port="4"/>
		<edge from-layer="2200" from-port="0" to-layer="2201" to-port="0"/>
		<edge from-layer="2201" from-port="1" to-layer="2202" to-port="0"/>
		<edge from-layer="2199" from-port="0" to-layer="2202" to-port="1"/>
		<edge from-layer="2198" from-port="5" to-layer="2203" to-port="0"/>
		<edge from-layer="2202" from-port="2" to-layer="2203" to-port="1"/>
		<edge from-layer="2204" from-port="0" to-layer="2205" to-port="0"/>
		<edge from-layer="2203" from-port="2" to-layer="2206" to-port="0"/>
		<edge from-layer="2205" from-port="1" to-layer="2206" to-port="1"/>
		<edge from-layer="2206" from-port="2" to-layer="2207" to-port="0"/>
		<edge from-layer="2207" from-port="1" to-layer="2208" to-port="0"/>
		<edge from-layer="2189" from-port="0" to-layer="2208" to-port="1"/>
		<edge from-layer="2190" from-port="0" to-layer="2208" to-port="2"/>
		<edge from-layer="2191" from-port="0" to-layer="2208" to-port="3"/>
		<edge from-layer="2192" from-port="0" to-layer="2208" to-port="4"/>
		<edge from-layer="2207" from-port="1" to-layer="2209" to-port="0"/>
		<edge from-layer="2209" from-port="1" to-layer="2213" to-port="0"/>
		<edge from-layer="2210" from-port="0" to-layer="2213" to-port="1"/>
		<edge from-layer="2211" from-port="0" to-layer="2213" to-port="2"/>
		<edge from-layer="2212" from-port="0" to-layer="2213" to-port="3"/>
		<edge from-layer="2213" from-port="4" to-layer="2215" to-port="0"/>
		<edge from-layer="2214" from-port="0" to-layer="2215" to-port="1"/>
		<edge from-layer="2208" from-port="5" to-layer="2216" to-port="0"/>
		<edge from-layer="2215" from-port="2" to-layer="2216" to-port="1"/>
		<edge from-layer="2187" from-port="0" to-layer="2216" to-port="2"/>
		<edge from-layer="2188" from-port="0" to-layer="2216" to-port="3"/>
		<edge from-layer="2216" from-port="4" to-layer="2217" to-port="0"/>
		<edge from-layer="2183" from-port="0" to-layer="2217" to-port="1"/>
		<edge from-layer="2184" from-port="0" to-layer="2217" to-port="2"/>
		<edge from-layer="2185" from-port="0" to-layer="2217" to-port="3"/>
		<edge from-layer="2186" from-port="0" to-layer="2217" to-port="4"/>
		<edge from-layer="2219" from-port="0" to-layer="2220" to-port="0"/>
		<edge from-layer="2220" from-port="1" to-layer="2221" to-port="0"/>
		<edge from-layer="2218" from-port="0" to-layer="2221" to-port="1"/>
		<edge from-layer="2217" from-port="5" to-layer="2222" to-port="0"/>
		<edge from-layer="2221" from-port="2" to-layer="2222" to-port="1"/>
		<edge from-layer="2223" from-port="0" to-layer="2224" to-port="0"/>
		<edge from-layer="2222" from-port="2" to-layer="2225" to-port="0"/>
		<edge from-layer="2224" from-port="1" to-layer="2225" to-port="1"/>
		<edge from-layer="2225" from-port="2" to-layer="2226" to-port="0"/>
		<edge from-layer="2226" from-port="1" to-layer="2227" to-port="0"/>
		<edge from-layer="2179" from-port="0" to-layer="2227" to-port="1"/>
		<edge from-layer="2180" from-port="0" to-layer="2227" to-port="2"/>
		<edge from-layer="2181" from-port="0" to-layer="2227" to-port="3"/>
		<edge from-layer="2182" from-port="0" to-layer="2227" to-port="4"/>
		<edge from-layer="2178" from-port="5" to-layer="2228" to-port="0"/>
		<edge from-layer="2227" from-port="5" to-layer="2228" to-port="1"/>
		<edge from-layer="2228" from-port="2" to-layer="2229" to-port="0"/>
		<edge from-layer="805" from-port="0" to-layer="2229" to-port="1"/>
		<edge from-layer="806" from-port="0" to-layer="2229" to-port="2"/>
		<edge from-layer="807" from-port="0" to-layer="2229" to-port="3"/>
		<edge from-layer="808" from-port="0" to-layer="2229" to-port="4"/>
		<edge from-layer="2231" from-port="0" to-layer="2232" to-port="0"/>
		<edge from-layer="2232" from-port="1" to-layer="2233" to-port="0"/>
		<edge from-layer="2230" from-port="0" to-layer="2233" to-port="1"/>
		<edge from-layer="2229" from-port="5" to-layer="2234" to-port="0"/>
		<edge from-layer="2233" from-port="2" to-layer="2234" to-port="1"/>
		<edge from-layer="2235" from-port="0" to-layer="2236" to-port="0"/>
		<edge from-layer="2234" from-port="2" to-layer="2237" to-port="0"/>
		<edge from-layer="2236" from-port="1" to-layer="2237" to-port="1"/>
		<edge from-layer="2237" from-port="2" to-layer="2238" to-port="0"/>
		<edge from-layer="2238" from-port="1" to-layer="2239" to-port="0"/>
		<edge from-layer="801" from-port="0" to-layer="2239" to-port="1"/>
		<edge from-layer="802" from-port="0" to-layer="2239" to-port="2"/>
		<edge from-layer="803" from-port="0" to-layer="2239" to-port="3"/>
		<edge from-layer="804" from-port="0" to-layer="2239" to-port="4"/>
		<edge from-layer="2238" from-port="1" to-layer="2240" to-port="0"/>
		<edge from-layer="2240" from-port="1" to-layer="2244" to-port="0"/>
		<edge from-layer="2241" from-port="0" to-layer="2244" to-port="1"/>
		<edge from-layer="2242" from-port="0" to-layer="2244" to-port="2"/>
		<edge from-layer="2243" from-port="0" to-layer="2244" to-port="3"/>
		<edge from-layer="2244" from-port="4" to-layer="2246" to-port="0"/>
		<edge from-layer="2245" from-port="0" to-layer="2246" to-port="1"/>
		<edge from-layer="2239" from-port="5" to-layer="2247" to-port="0"/>
		<edge from-layer="2246" from-port="2" to-layer="2247" to-port="1"/>
		<edge from-layer="799" from-port="0" to-layer="2247" to-port="2"/>
		<edge from-layer="800" from-port="0" to-layer="2247" to-port="3"/>
		<edge from-layer="2247" from-port="4" to-layer="2248" to-port="0"/>
		<edge from-layer="795" from-port="0" to-layer="2248" to-port="1"/>
		<edge from-layer="796" from-port="0" to-layer="2248" to-port="2"/>
		<edge from-layer="797" from-port="0" to-layer="2248" to-port="3"/>
		<edge from-layer="798" from-port="0" to-layer="2248" to-port="4"/>
		<edge from-layer="2254" from-port="0" to-layer="2255" to-port="0"/>
		<edge from-layer="2255" from-port="1" to-layer="2256" to-port="0"/>
		<edge from-layer="2253" from-port="0" to-layer="2256" to-port="1"/>
		<edge from-layer="760" from-port="5" to-layer="2257" to-port="0"/>
		<edge from-layer="2256" from-port="2" to-layer="2257" to-port="1"/>
		<edge from-layer="2258" from-port="0" to-layer="2259" to-port="0"/>
		<edge from-layer="2257" from-port="2" to-layer="2260" to-port="0"/>
		<edge from-layer="2259" from-port="1" to-layer="2260" to-port="1"/>
		<edge from-layer="2260" from-port="2" to-layer="2261" to-port="0"/>
		<edge from-layer="2261" from-port="1" to-layer="2262" to-port="0"/>
		<edge from-layer="2249" from-port="0" to-layer="2262" to-port="1"/>
		<edge from-layer="2250" from-port="0" to-layer="2262" to-port="2"/>
		<edge from-layer="2251" from-port="0" to-layer="2262" to-port="3"/>
		<edge from-layer="2252" from-port="0" to-layer="2262" to-port="4"/>
		<edge from-layer="2248" from-port="5" to-layer="2263" to-port="0"/>
		<edge from-layer="2262" from-port="5" to-layer="2263" to-port="1"/>
		<edge from-layer="2263" from-port="2" to-layer="2264" to-port="0"/>
		<edge from-layer="791" from-port="0" to-layer="2264" to-port="1"/>
		<edge from-layer="792" from-port="0" to-layer="2264" to-port="2"/>
		<edge from-layer="793" from-port="0" to-layer="2264" to-port="3"/>
		<edge from-layer="794" from-port="0" to-layer="2264" to-port="4"/>
		<edge from-layer="2266" from-port="0" to-layer="2267" to-port="0"/>
		<edge from-layer="2267" from-port="1" to-layer="2268" to-port="0"/>
		<edge from-layer="2265" from-port="0" to-layer="2268" to-port="1"/>
		<edge from-layer="2264" from-port="5" to-layer="2269" to-port="0"/>
		<edge from-layer="2268" from-port="2" to-layer="2269" to-port="1"/>
		<edge from-layer="2270" from-port="0" to-layer="2271" to-port="0"/>
		<edge from-layer="2269" from-port="2" to-layer="2272" to-port="0"/>
		<edge from-layer="2271" from-port="1" to-layer="2272" to-port="1"/>
		<edge from-layer="2272" from-port="2" to-layer="2273" to-port="0"/>
		<edge from-layer="2273" from-port="1" to-layer="2274" to-port="0"/>
		<edge from-layer="787" from-port="0" to-layer="2274" to-port="1"/>
		<edge from-layer="788" from-port="0" to-layer="2274" to-port="2"/>
		<edge from-layer="789" from-port="0" to-layer="2274" to-port="3"/>
		<edge from-layer="790" from-port="0" to-layer="2274" to-port="4"/>
		<edge from-layer="2273" from-port="1" to-layer="2275" to-port="0"/>
		<edge from-layer="2275" from-port="1" to-layer="2279" to-port="0"/>
		<edge from-layer="2276" from-port="0" to-layer="2279" to-port="1"/>
		<edge from-layer="2277" from-port="0" to-layer="2279" to-port="2"/>
		<edge from-layer="2278" from-port="0" to-layer="2279" to-port="3"/>
		<edge from-layer="2279" from-port="4" to-layer="2281" to-port="0"/>
		<edge from-layer="2280" from-port="0" to-layer="2281" to-port="1"/>
		<edge from-layer="2274" from-port="5" to-layer="2282" to-port="0"/>
		<edge from-layer="2281" from-port="2" to-layer="2282" to-port="1"/>
		<edge from-layer="785" from-port="0" to-layer="2282" to-port="2"/>
		<edge from-layer="786" from-port="0" to-layer="2282" to-port="3"/>
		<edge from-layer="2282" from-port="4" to-layer="2283" to-port="0"/>
		<edge from-layer="781" from-port="0" to-layer="2283" to-port="1"/>
		<edge from-layer="782" from-port="0" to-layer="2283" to-port="2"/>
		<edge from-layer="783" from-port="0" to-layer="2283" to-port="3"/>
		<edge from-layer="784" from-port="0" to-layer="2283" to-port="4"/>
		<edge from-layer="2289" from-port="0" to-layer="2290" to-port="0"/>
		<edge from-layer="2290" from-port="1" to-layer="2291" to-port="0"/>
		<edge from-layer="2288" from-port="0" to-layer="2291" to-port="1"/>
		<edge from-layer="295" from-port="5" to-layer="2292" to-port="0"/>
		<edge from-layer="2291" from-port="2" to-layer="2292" to-port="1"/>
		<edge from-layer="2293" from-port="0" to-layer="2294" to-port="0"/>
		<edge from-layer="2292" from-port="2" to-layer="2295" to-port="0"/>
		<edge from-layer="2294" from-port="1" to-layer="2295" to-port="1"/>
		<edge from-layer="2295" from-port="2" to-layer="2296" to-port="0"/>
		<edge from-layer="2296" from-port="1" to-layer="2297" to-port="0"/>
		<edge from-layer="2284" from-port="0" to-layer="2297" to-port="1"/>
		<edge from-layer="2285" from-port="0" to-layer="2297" to-port="2"/>
		<edge from-layer="2286" from-port="0" to-layer="2297" to-port="3"/>
		<edge from-layer="2287" from-port="0" to-layer="2297" to-port="4"/>
		<edge from-layer="2283" from-port="5" to-layer="2298" to-port="0"/>
		<edge from-layer="2297" from-port="5" to-layer="2298" to-port="1"/>
		<edge from-layer="2298" from-port="2" to-layer="2299" to-port="0"/>
		<edge from-layer="777" from-port="0" to-layer="2299" to-port="1"/>
		<edge from-layer="778" from-port="0" to-layer="2299" to-port="2"/>
		<edge from-layer="779" from-port="0" to-layer="2299" to-port="3"/>
		<edge from-layer="780" from-port="0" to-layer="2299" to-port="4"/>
		<edge from-layer="2301" from-port="0" to-layer="2302" to-port="0"/>
		<edge from-layer="2302" from-port="1" to-layer="2303" to-port="0"/>
		<edge from-layer="2300" from-port="0" to-layer="2303" to-port="1"/>
		<edge from-layer="2299" from-port="5" to-layer="2304" to-port="0"/>
		<edge from-layer="2303" from-port="2" to-layer="2304" to-port="1"/>
		<edge from-layer="2305" from-port="0" to-layer="2306" to-port="0"/>
		<edge from-layer="2304" from-port="2" to-layer="2307" to-port="0"/>
		<edge from-layer="2306" from-port="1" to-layer="2307" to-port="1"/>
		<edge from-layer="2307" from-port="2" to-layer="2308" to-port="0"/>
		<edge from-layer="2308" from-port="1" to-layer="2309" to-port="0"/>
		<edge from-layer="773" from-port="0" to-layer="2309" to-port="1"/>
		<edge from-layer="774" from-port="0" to-layer="2309" to-port="2"/>
		<edge from-layer="775" from-port="0" to-layer="2309" to-port="3"/>
		<edge from-layer="776" from-port="0" to-layer="2309" to-port="4"/>
		<edge from-layer="2312" from-port="0" to-layer="2313" to-port="0"/>
		<edge from-layer="2313" from-port="1" to-layer="2314" to-port="0"/>
		<edge from-layer="2311" from-port="0" to-layer="2314" to-port="1"/>
		<edge from-layer="2314" from-port="2" to-layer="2315" to-port="0"/>
		<edge from-layer="2310" from-port="0" to-layer="2315" to-port="1"/>
		<edge from-layer="2309" from-port="5" to-layer="2316" to-port="0"/>
		<edge from-layer="2315" from-port="2" to-layer="2316" to-port="1"/>
		<edge from-layer="2317" from-port="0" to-layer="2318" to-port="0"/>
		<edge from-layer="2316" from-port="2" to-layer="2319" to-port="0"/>
		<edge from-layer="2318" from-port="1" to-layer="2319" to-port="1"/>
		<edge from-layer="2319" from-port="2" to-layer="2320" to-port="0"/>
		<edge from-layer="2320" from-port="1" to-layer="2321" to-port="0"/>
		<edge from-layer="769" from-port="0" to-layer="2321" to-port="1"/>
		<edge from-layer="770" from-port="0" to-layer="2321" to-port="2"/>
		<edge from-layer="771" from-port="0" to-layer="2321" to-port="3"/>
		<edge from-layer="772" from-port="0" to-layer="2321" to-port="4"/>
		<edge from-layer="2323" from-port="0" to-layer="2324" to-port="0"/>
		<edge from-layer="2324" from-port="1" to-layer="2325" to-port="0"/>
		<edge from-layer="2322" from-port="0" to-layer="2325" to-port="1"/>
		<edge from-layer="2321" from-port="5" to-layer="2326" to-port="0"/>
		<edge from-layer="2325" from-port="2" to-layer="2326" to-port="1"/>
		<edge from-layer="2327" from-port="0" to-layer="2328" to-port="0"/>
		<edge from-layer="2326" from-port="2" to-layer="2329" to-port="0"/>
		<edge from-layer="2328" from-port="1" to-layer="2329" to-port="1"/>
		<edge from-layer="2329" from-port="2" to-layer="2330" to-port="0"/>
		<edge from-layer="765" from-port="0" to-layer="2330" to-port="1"/>
		<edge from-layer="766" from-port="0" to-layer="2330" to-port="2"/>
		<edge from-layer="767" from-port="0" to-layer="2330" to-port="3"/>
		<edge from-layer="768" from-port="0" to-layer="2330" to-port="4"/>
		<edge from-layer="2329" from-port="2" to-layer="2331" to-port="0"/>
		<edge from-layer="2331" from-port="1" to-layer="2335" to-port="0"/>
		<edge from-layer="2332" from-port="0" to-layer="2335" to-port="1"/>
		<edge from-layer="2333" from-port="0" to-layer="2335" to-port="2"/>
		<edge from-layer="2334" from-port="0" to-layer="2335" to-port="3"/>
		<edge from-layer="2335" from-port="4" to-layer="2337" to-port="0"/>
		<edge from-layer="2336" from-port="0" to-layer="2337" to-port="1"/>
		<edge from-layer="2330" from-port="5" to-layer="2338" to-port="0"/>
		<edge from-layer="2337" from-port="2" to-layer="2338" to-port="1"/>
		<edge from-layer="763" from-port="0" to-layer="2338" to-port="2"/>
		<edge from-layer="764" from-port="0" to-layer="2338" to-port="3"/>
		<edge from-layer="2338" from-port="4" to-layer="2339" to-port="0"/>
		<edge from-layer="2339" from-port="1" to-layer="2340" to-port="0"/>
	</edges>
	<rt_info>
		<MO_version value="custom_HEAD_0250f62d11102ae97a35803756f079090876ddc1"/>
		<Runtime_version value="2023.0.0-10367-0250f62d111-HEAD"/>
		<conversion_parameters>
			<caffe_parser_path value="DIR"/>
			<framework value="caffe"/>
			<input value="data"/>
			<input_model value="DIR/model.caffemodel"/>
			<input_proto value="DIR/model.prototxt"/>
			<input_shape value="[1,3,512,896]"/>
			<layout value="data(nchw)"/>
			<model_name value="road-segmentation-adas-0001"/>
			<output value="L0317_ReWeight_SoftMax"/>
			<output_dir value="DIR"/>
		</conversion_parameters>
		<legacy_frontend value="True"/>
		<quantization_parameters>
			<cli_params>
				<ac_config value="None"/>
				<data_source value="None"/>
				<direct_dump value="True"/>
				<engine value="None"/>
				<evaluate value="False"/>
				<keep_uncompressed_weights value="False"/>
				<log_level value="INFO"/>
				<max_drop value="None"/>
				<model value="None"/>
				<name value="None"/>
				<output_dir value="PATH"/>
				<pbar value="False"/>
				<preset value="None"/>
				<quantize value="None"/>
				<stream_output value="False"/>
				<weights value="None"/>
			</cli_params>
			<config value="{
		'compression': {
			'algorithms': [
				{
					'name': 'DefaultQuantization',
					'params': {
						'num_samples_for_tuning': 2000,
						'preset': 'performance',
						'stat_subset_size': 300,
						'use_layerwise_tuning': false
					}
				}
			],
			'dump_intermediate_model': true,
			'target_device': 'ANY'
		},
		'engine': {
			'models': [
				{
					'name': 'road-segmentation-adas-0001',
					'launchers': [
						{
							'framework': 'openvino',
							'adapter': 'segmentation',
							'device': 'cpu'
						}
					],
					'datasets': [
						{
							'name': 'road_segmentation',
							'data_source': 'PATH',
							'segmentation_masks_source': 'PATH',
							'annotation_conversion': {
								'converter': 'mighty',
								'annotation_file': 'PATH'
							},
							'annotation': 'PATH',
							'dataset_meta': 'PATH',
							'preprocessing': [
								{
									'type': 'resize',
									'dst_height': 512,
									'dst_width': 896
								}
							],
							'postprocessing': [
								{
									'type': 'resize_segmentation_mask',
									'apply_to': 'annotation',
									'dst_height': 512,
									'dst_width': 896
								}
							],
							'metrics': [
								{
									'type': 'mean_iou',
									'presenter': 'print_vector',
									'reference': {
										'BG': 0.986,
										'curbs': 0.727,
										'marks': 0.707,
										'mean': 0.844,
										'road': 0.954
									}
								},
								{
									'type': 'mean_accuracy',
									'presenter': 'print_vector',
									'reference': {
										'BG': 0.994,
										'curbs': 0.825,
										'marks': 0.803,
										'mean': 0.899,
										'road': 0.974
									}
								}
							],
							'_command_line_mapping': {
								'annotation_file': 'PATH'
							}
						}
					]
				}
			],
			'stat_requests_number': null,
			'eval_requests_number': null,
			'type': 'accuracy_checker'
		}
	}"/>
			<version value="invalid version"/>
		</quantization_parameters>
	</rt_info>
	<quantization_parameters>
		<config>{
		'compression': {
			'algorithms': [
				{
					'name': 'DefaultQuantization',
					'params': {
						'num_samples_for_tuning': 2000,
						'preset': 'performance',
						'stat_subset_size': 300,
						'use_layerwise_tuning': false
					}
				}
			],
			'dump_intermediate_model': true,
			'target_device': 'ANY'
		},
		'engine': {
			'models': [
				{
					'name': 'road-segmentation-adas-0001',
					'launchers': [
						{
							'framework': 'openvino',
							'adapter': 'segmentation',
							'device': 'cpu'
						}
					],
					'datasets': [
						{
							'name': 'road_segmentation',
							'data_source': 'PATH',
							'segmentation_masks_source': 'PATH',
							'annotation_conversion': {
								'converter': 'mighty',
								'annotation_file': 'PATH'
							},
							'annotation': 'PATH',
							'dataset_meta': 'PATH',
							'preprocessing': [
								{
									'type': 'resize',
									'dst_height': 512,
									'dst_width': 896
								}
							],
							'postprocessing': [
								{
									'type': 'resize_segmentation_mask',
									'apply_to': 'annotation',
									'dst_height': 512,
									'dst_width': 896
								}
							],
							'metrics': [
								{
									'type': 'mean_iou',
									'presenter': 'print_vector',
									'reference': {
										'BG': 0.986,
										'curbs': 0.727,
										'marks': 0.707,
										'mean': 0.844,
										'road': 0.954
									}
								},
								{
									'type': 'mean_accuracy',
									'presenter': 'print_vector',
									'reference': {
										'BG': 0.994,
										'curbs': 0.825,
										'marks': 0.803,
										'mean': 0.899,
										'road': 0.974
									}
								}
							],
							'_command_line_mapping': {
								'annotation_file': 'PATH'
							}
						}
					]
				}
			],
			'stat_requests_number': null,
			'eval_requests_number': null,
			'type': 'accuracy_checker'
		}
	}</config>
		<version value="invalid version"/>
		<cli_params value="{'quantize': None, 'preset': None, 'model': None, 'weights': None, 'name': None, 'engine': None, 'ac_config': None, 'max_drop': None, 'evaluate': False, 'output_dir': 'PATH', 'direct_dump': True, 'log_level': 'INFO', 'pbar': False, 'stream_output': False, 'keep_uncompressed_weights': False, 'data_source': None}"/>
	</quantization_parameters>
</net>
